model_store/onet_model_final.pt (torch_old, 900428 bytes, 15 tensors)

pre_layer.0.weight f4 [32, 3, 3, 3]
00000000: 5340 b73b 1b44 3ebe 778c 43bc 1d4f b03c
00000010: f167 40bd 748a 663c 4301 d43c 9e43 1abd
00000020: e026 0b3e 96a4 cdbd f9c1 2cbe f9d0 2ebe
00000030: 459c b7bd 449b d63d fa70 073e a083 d43d
00000040: f78c 073e b52e 0c3d 9a50 41be 315f 8abe
00000050: a82e 17bd d40e 73bd d76a cabd de6b 99bd
00000060: d8b0 15be 5e2a 2ebc e92c 02be 6c1f 163e
00000070: d8cc 0e3c 5a28 403d 0ef5 c63c 6e73 f7bd
00000080: c2f4 1f3e 74c6 63bc 359e 48bd f7e5 87bd
00000090: 37c1 00be f91d 59be bee8 75bd bb05 5bbd
000000a0: 923c 83bc ded6 08be 0b0c ebbd 1270 a5bb
000000b0: 1912 3abe 9d18 8b3d 7e40 833c 0224 e3bb
000000c0: 1737 b63d c5fa 2a3d a605 b7bd 0db6 903d
000000d0: 6b43 30bd fbb3 95bc ff18 0f3d 94ca 9ebd
000000e0: 0068 0e3e b7ab 4d3c 33a1 f93d f2a7 c73c
000000f0: 1b7a 24be 5ee3 02be d27f 9e3d 5ea7 743c
00000100: 03d9 763d 23f0 623c 4ec2 d03c fd1d 323c
00000110: 70be 3b3d 8f9b 31bc 4f9f 683c 8d7f ba3c
00000120: e8db a33d ed5f 043e 52ea 04be cb58 243d
00000130: 47ae af3d 12cb 3abd 727d eebd 3f86 f63d
00000140: 62a5 b73d d149 283c d6e0 2a3c adf5 f7bc
00000150: 3bb6 3c3d 2a16 2c3e 41b6 26be 6be6 033e
00000160: 73f5 143d 44b6 2c3d 82c8 5fbd d140 b9bc
00000170: 8dbc a0be b98a 0f3e a0af 853b 31e4 e63a
00000180: 193d a73d 07a3 71bd 092f aabd f43c 043e
00000190: 3d04 b1bd 34c4 91be e816 443e f46e 903a
000001a0: 4110 b1bc 8f39 603e 783f da3c c1d1 c4bc
000001b0: d7c1 18bb 894c 043d 191b a63d f891 e6bd
000001c0: dfe1 60b9 19f2 f73d bc8b 0a3e f9eb 05be
000001d0: a519 c2bd 1e5d 96bd 64cf 213d cdb9 043e
000001e0: 2439 c8bd 5851 963d 5cef bcbd bcb3 e03d
000001f0: 19c2 edbc ad15 833d 7f41 8ebd a4b2 debd
00000200: 3390 0ebe 4cd4 d73c a027 54be cbbb 1cbe
00000210: 702b 0ebd fbbe 3ebe 08cc 05be 4eaa d8bd
00000220: cb5b f9bd 9747 debd 8d8c a3bd 672b c2bd
00000230: 529c ea3d 4765 d9bd a574 4bbc 0a50 d2bc
00000240: d33e 0bbe fe60 2ebc f040 523d 2864 693d
00000250: 71e7 5c3d c592 eb3d 95b5 cf3d 10bf fdbd
00000260: e829 6e3d ce87 fdbd 3bd9 833b 977c 4c3d
00000270: ce97 cf3c 6530 febd 9299 f3bd 1782 ccbd
00000280: eaee 20bc 475e a6bd 7da7 38bc ad6d c73d
00000290: da5e 29be 3ab3 603d f769 d3bd e12e 34bb
000002a0: c103 32be ab1e 2dbe 62e7 36be 7c3d 9f3d
000002b0: a97e 83bd 3fee 41be be75 6e3c 147d 9dbd
000002c0: e399 ee3c cdd7 2c3d 2f4e 1cbe 59a5 e13d
000002d0: 16f3 21be 175c 493d ec87 c5bd dce2 bdbd
000002e0: 3d56 513c d8ea 23be bb54 4dbd 7fbe e7bd
000002f0: 2178 083d a6b5 97bd 9d3d 3cbe cb9f 313b
00000300: a390 d23d 9fba a9bc 3b2d 45be 146c 193d
00000310: 00b1 0fbd d079 c8bd a4aa 57bd 149d 14bd
00000320: f103 8c3d 4db6 0a3e 72c4 813d 1aa9 23be
00000330: 2404 d9bd dab3 113e 0e92 6b3d 6ea2 b6bd
00000340: a5a9 00be ba23 273e b1d4 89bd 1cda cb3c
00000350: 9962 eabd 4343 a33d 18fe 4c3e 7a2f ab3d
00000360: f63d b9bd b6a9 a43c 6dbe 86bd 4862 a0bd
00000370: 1cb1 543c b2fe a6bd 737b b1bd 467f 8bbd
00000380: 401d 73bc 56b5 1fbe 1855 633d 6806 f3bd
00000390: d02d 38be f386 5fbb b63d 20be bd49 94bc
000003a0: fa24 85bd 35ae 203d 18c4 523d 3bde ea3d
000003b0: d612 183e d6bb af3d 9790 7e3d 06fa 603e
000003c0: b304 ce3c 9644 96bd 7376 2e3e 19f2 fe3c
000003d0: 1471 7ebc 24ac 13be 652f 1ebe 6bd2 f0bd
000003e0: 4611 18be 6175 0b3d a821 e83d 31ae a43d
000003f0: e561 85bd ddcb 6ebd 54e3 5f3b 6b00 fabc
0.005592385 -0.18580668 -0.011935345 0.0215221 -0.046974126 0.014071096 0.025879508 -0.03766214
0.13589048 -0.10041158 -0.1687087 -0.17071904 -0.08965353 0.10478833 0.13226691 0.10376668
0.13237368 0.03422423 -0.18878403 -0.2702575 -0.03690973 -0.059340313 -0.09883659 -0.07491277
-0.14618242 -0.010630218 -0.12712444 0.14660424 0.008715831 0.046913482 0.024286773 -0.12082563
0.15620711 -0.013902295 -0.048979003 -0.06635659 -0.12573706 -0.2120284 -0.060036413 -0.053472262
-0.016020093 -0.13363215 -0.114769064 -0.00504876 -0.18170966 0.06791804 0.016021963 -0.0069317827
0.08897226 0.04174306 -0.08936624 0.070659734 -0.043033045 -0.018274298 0.034935948 -0.077534825
0.1390686 0.012553147 0.121889494 0.024372075 -0.16062205 -0.12782046 0.077392235 0.014932482
0.060265552 0.013851198 0.025483277 0.010871408 0.045835912 -0.010840311 0.014198138 0.0227659
0.08000928 0.12927218 -0.12980011 0.040123742 0.08578163 -0.04560382 -0.116450205 0.12037324
0.08967091 0.010271505 0.010429582 -0.030268515 0.046072226 0.1680533 -0.16280462 0.12880866
0.03636689 0.04216601 -0.05463458 -0.022613915 -0.31393853 0.14017762 0.004079774 0.0017615614
0.0816595 -0.058993366 -0.083097525 0.12913877 -0.086433865 -0.28470004 0.19149363 0.0011019395
-0.021614196 0.21896957 0.026641592 -0.0240258 -0.0023308897 0.032299552 0.08110637 -0.1125831
-0.00021446448 0.12106723 0.13529867 -0.13078298 -0.094775476 -0.073419794 0.039504424 0.12961502
-0.09776524 0.07339734 -0.09225342 0.109717816 -0.029023217 0.06400619 -0.06946086 -0.10873917
-0.13922195 0.026346348 -0.2071824 -0.15306012 -0.034709394 -0.18627541 -0.13066113 -0.10579358
-0.12175711 -0.108534984 -0.07985792 -0.094809346 0.11455597 -0.1061502 -0.012417947 -0.025672931
-0.13598184 -0.010643242 0.05133146 0.056980282 0.053931657 0.115026034 0.10142056 -0.12389958
0.058145434 -0.12379418 0.0040236986 0.049923506 0.02534094 -0.12411574 -0.118945256 -0.0998575
-0.009822587 -0.08123451 -0.011270401 0.09737716 -0.16540089 0.054858424 -0.103229456 -0.0027493762
-0.17384245 -0.1690623 -0.17861703 0.07775399 -0.06420643 -0.1893854 0.014554439 -0.076898724
0.029126113 0.04219799 -0.152642 0.11017866 -0.15815386 0.04916009 -0.09645066 -0.092717856
0.012776908 -0.16007555 -0.050129633 -0.11315631 0.03331769 -0.074076936 -0.18382879 0.00271033
0.102814935 -0.02071887 -0.19255535 0.037456587 -0.03508091 -0.09788859 -0.05265297 -0.036282614
0.06836689 0.13546105 0.06336297 -0.15982476 -0.10596493 0.14228764 0.057512335 -0.089177
-0.12564714 0.16322222 -0.06730021 0.024884276 -0.11444587 0.079718135 0.20018804 0.08358665
-0.09045021 0.020100456 -0.065792896 -0.07831246 0.012981679 -0.08154048 -0.08666124 -0.06811385
-0.014838517 -0.15596518 0.055501074 -0.11866456 -0.17986226 -0.0034107536 -0.15648541 -0.018101567
-0.06501193 0.039228637 0.05145654 0.11468168 0.14850935 0.08580749 0.06214961 0.21970376
0.025148725 -0.073373005 0.17037372 0.0311213 -0.01552989 -0.14421135 -0.15447767 -0.11758884
-0.1485034 0.034047488 0.113345444 0.08041037 -0.065128125 -0.058299888 0.0034162598 -0.030517777

pre_layer.0.bias f4 [32]
00000000: fc5d c23b 7d84 f43d b79f 62bd 4a48 22bc
00000010: 51ba e33b df53 d23d b957 3e3c 3977 893d
00000020: ad43 1ebd 3a86 9b3d c4ae 203d 08d6 5f3d
00000030: 696f 153d 2f45 20bd 7e2b 09bd e433 953d
00000040: 7606 cab9 b018 8f3d 0fd3 9b3d 4776 043e
00000050: f768 963d eae6 7e3d abdf a63b 27db 513d
00000060: 2c56 0c3e 801d 213c a613 993d 4154 89bc
00000070: 2e77 613c b895 4c3d 6fb6 d93d d7c0 093b
0.005931614 0.11939333 -0.055328097 -0.00990493 0.006949701 0.102699034 0.011617594 0.06712193
-0.03863876 0.07593961 0.03922917 0.054647475 0.036483202 -0.03912848 -0.033488743 0.07285288
-0.00038533256 0.06987131 0.076086156 0.12935744 0.07344239 0.062231936 0.0050925813 0.05123439
0.13704747 0.0098336935 0.07474451 -0.016763808 0.013761325 0.04994747 0.106304996 0.0021019483

pre_layer.3.weight f4 [64, 32, 3, 3]
00000000: 4d46 653d 4d22 7cbd 22fd 30be 3e37 7f3d
00000010: f995 483d 0823 afbc 8d84 00be 3b40 8abd
00000020: c5f2 2ebe 7d3c 573d 37dd 5f3d 0060 e6bc
00000030: 5b7f 753d 116d cd3c d2ae 4a3c fb59 99bc
00000040: 4d53 0cbd d388 603d 87af 92bd 1ca9 b7bd
00000050: e9c4 1d3d 5ca8 ad3b 07dd 973c a4b8 a9bd
00000060: af32 b93c 5d50 943d 13f3 e3bd 0d33 0b3d
00000070: a97e 31be 2ffa ebbd 484b 593e 6d3c 0b3e
00000080: 8728 103a a638 f33d a6a4 a93d 7d69 89bd
00000090: b872 de3d ce3e da3c c1e6 4abd c13d bf3c
000000a0: d1d8 8c3b 3dc9 0f3e 0a5c d4bc 3c7e 893c
000000b0: 2b7c 7bbd 5b05 07be f48e 90bd 4167 65be
000000c0: 263e 08be 3bd6 5fbd 5b29 04be c79d 6dbe
000000d0: 2aec 75be 4baa 25be 98a3 d1bb 2c23 e8bc
000000e0: e984 25be f9a4 0ebd 76bb edb9 a0d7 13bd
000000f0: a437 74be a4e6 85be 9057 a8bd 062c 84be
00000100: d1ae 22be c8f8 57be e9b4 1abe 580a 61bc
00000110: a725 5d3c 2063 5abe 9a80 41be 9edc 88be
00000120: e9ff 0ebd 5e35 75bc ef2e 7c3d d981 a13c
00000130: 1f30 f63c 51e2 453d 70be d23d e8c7 b03d
00000140: c5cd 86bd 4157 b03d 8f0a b93d d103 06bd
00000150: 7c29 ec3d 635b 0c3d 7c9a 2a3c bde2 d9bd
00000160: 8500 d3b9 a9d7 6fbd e368 8c3d 6cbd 2a3e
00000170: 9be2 39bd a865 dc3d 74f8 b9bc 36ab c63d
00000180: be0a 5abd 60d8 803d f728 4c3c bfed e63c
00000190: 28f9 213e b043 6abc 4c49 2bbb 7fd1 033e
000001a0: 3928 ab3d 7dcd 033c f7c8 d13b ce94 8bbd
000001b0: 40da 913d 56fa 1fbd 9dfd b7bd 99da dc3c
000001c0: a95c 05bd 1b0f 5fbd 955d e8bd 917f 88bd
000001d0: 42d3 aa3c f85e 98bc f35b b1bd d64e 78bc
000001e0: 2a79 023e 6419 303c 7251 8dbc 5622 a93d
000001f0: e9e3 983d 4340 8fbd b8cc 4a3c 0ee0 963d
00000200: 7b91 b23d 653b eb3a 4144 b93d dc6c 9c3c
00000210: 9611 2e3d 7d7d 85bd 2f29 9b3c 6635 e23c
00000220: 3c5d 963d 65d8 fabb bffe 953d 207a dcbc
00000230: 00ff 9d3b 3336 08bc 495e 933b 943c 5abc
00000240: 6c2b 893d 9a9b ba3d cb63 b8bd 8c39 a4bc
00000250: b4ec af3d 8724 883b d33f 0fbc f8f4 59bc
00000260: fd33 87bc cb30 473d 143d b2bb 046a 85bb
00000270: fac8 ba3b c06e 103e bd8e 243d 77d4 86bd
00000280: 4fa9 89bd 0d7c 97bd 7fa4 bd3d 7090 193e
00000290: ee0a 92bc 976b 53bc 775e 94ba 9de8 acba
000002a0: fd8c b3bd 3e28 e83c fed1 81bd 274c 65bd
000002b0: d0d5 59bd f5ae 36bd 6158 01be 0b6f 16bd
000002c0: 7555 e4bc cb7e 67be cd18 60be f7ae cabd
000002d0: 9afb cbbc 2bfa ce3d 353c 08bd 54ac ffbd
000002e0: a190 88bd 0ed8 c9bd ccc4 3ebe b86b 9cbe
000002f0: 750f 3cbe 983e c7bd ab0a dc3c 2131 a03d
00000300: 3a93 6f3c badd 1abd aa34 a93b 161c c4bb
00000310: 09e5 e3bd 2611 87be 38b1 e8bb 0313 e63d
00000320: 0506 253d 1cc5 8c3d 267b 103c 279f b13b
00000330: f015 be3a 100e b13c 36da e63c 3e71 8cbd
00000340: 4abc 543d b65b 1dbd 56a4 7b3d acb9 b53d
00000350: 6694 de3c 28d6 7bbd 733b 47bd 1654 d43d
00000360: 02f1 c63d 5535 3d3d f694 d6bd 8280 0339
00000370: 9bfd f33d f8af 423d dc14 a4bc ba43 9c3c
00000380: 8fb5 8c3d f3ac 4b3e f027 8c3e 06d8 b03d
00000390: 22ce 1ebe 1553 37bd ded8 17bd b5b5 7bbd
000003a0: 269a d5bd 0dcf b33c fd58 423d f8cd 483d
000003b0: 9943 c8bd a5cc 733d 5ae2 0c3e 6014 ae3d
000003c0: 59f4 e3bb 9bc2 1c3d 2c32 86bc feb0 223d
000003d0: f396 23be 73a7 dabe b6cb dd3c 23d3 a8bd
000003e0: aea7 19be 5329 dbbd 8eb7 0dbd b563 a3bc
000003f0: d271 3b3d df58 9d3d f04a 12be a3ef 413d
0.055975247 -0.06155615 -0.17284063 0.062308542 0.04897115 -0.021379009 -0.12550564 -0.06750532
-0.17084797 0.05254792 0.054654326 -0.028121948 0.05993591 0.025076421 0.012370782 -0.018719664
-0.03425913 0.054817986 -0.071623854 -0.08967802 0.038517866 0.005299611 0.018538011 -0.082871705
0.022607176 0.072418906 -0.11130347 0.033984233 -0.17333473 -0.11522328 0.21220124 0.1359727
0.0005499203 0.11876039 0.08283357 -0.067095734 0.108617246 0.026641276 -0.04953647 0.023344876
0.0042983075 0.1404161 -0.025922794 0.016783826 -0.061397713 -0.13185637 -0.07058516 -0.2240267
-0.13304958 -0.054647665 -0.12906401 -0.23204719 -0.2401587 -0.16178243 -0.0063976757 -0.028337084
-0.16163982 -0.0348253 -0.00045343832 -0.036094308 -0.2384935 -0.26152527 -0.08219826 -0.25814837
-0.15887 -0.21090996 -0.15108074 -0.013735376 0.013497747 -0.21326876 -0.18896714 -0.26730818
-0.034912024 -0.014966337 0.061568197 0.019715236 0.030052243 0.048311535 0.10290229 0.08631879
-0.06582216 0.08610392 0.09035217 -0.032718483 0.1153135 0.03426684 0.0104128085 -0.1063895
-0.00040245443 -0.05855528 0.06855943 0.16673821 -0.045382123 0.10761577 -0.02270148 0.09700625
-0.0532329 0.0629127 0.012460939 0.028189538 0.15817702 -0.0142983645 -0.0026136218 0.12872885
0.08357281 0.008044598 0.0064021307 -0.068154916 0.07121706 -0.0390571 -0.0898392 0.026959704
-0.03255907 -0.054457765 -0.11345974 -0.06664956 0.020852689 -0.018599972 -0.08660116 -0.015155515
0.12741533 0.010748241 -0.01725075 0.08258502 0.074653454 -0.06994679 0.01237791 0.07366954
0.087191544 0.0017946778 0.090462215 0.019094877 0.04249724 -0.065180756 0.018940536 0.027613353
0.07342002 -0.007655191 0.073239796 -0.026913702 0.004821658 -0.008313703 0.0044973237 -0.013320107
0.06697735 0.0911171 -0.09003409 -0.020046972 0.085900694 0.004154745 -0.008743244 -0.013303034
-0.016504282 0.048630517 -0.00543941 -0.004071476 0.005700228 0.14104748 0.04017519 -0.06583493
-0.06721746 -0.07396708 0.09259891 0.14996505 -0.017827477 -0.012904069 -0.0011319657 -0.0013191883
-0.08767126 0.028339501 -0.06338881 -0.055980828 -0.053182423 -0.044600446 -0.1263137 -0.036726993
-0.02787278 -0.22606961 -0.21884461 -0.09896653 -0.024900246 0.101063095 -0.033260543 -0.12484041
-0.06668211 -0.09855662 -0.1862976 -0.30550933 -0.18365271 -0.09728736 0.026860556 0.078218706
0.014622504 -0.03780911 0.0051637487 -0.0059847934 -0.11127669 -0.2638027 -0.0071012042 0.11234095
0.040288944 0.06873533 0.008818423 0.0054205838 0.0014502387 0.02161315 0.028180223 -0.06857537
0.05193738 -0.03841754 0.06143602 0.08873305 0.027170371 -0.061483532 -0.04864068 0.103676006
0.09713937 0.04619344 -0.10477631 0.00012541006 0.11913606 0.047531098 -0.020029478 0.019075263
0.06870567 0.19890194 0.2737422 0.08634953 -0.15508321 -0.044756968 -0.037072055 -0.061452586
-0.10429792 0.021949315 0.047448147 0.049024552 -0.09778518 0.059521336 0.13758221 0.0849998
-0.0069566187 0.038271528 -0.016381346 0.039719574 -0.15975551 -0.4270588 0.027074676 -0.08243396
-0.15005371 -0.10701241 -0.03459888 -0.019945005 0.045762844 0.076829664 -0.14286399 0.047347676

pre_layer.3.bias f4 [64]
00000000: 776b 123e f931 083e 250f 5b3d 9bce 53bd
00000010: 04a3 1a3e 0f2e a5bc fa08 0c3d 961e 363d
00000020: b172 aa3d 82b4 493d 3231 b2bb 1a44 3ebd
00000030: 4bfb 793d 01d7 b23d 570d 923d eaac 37bc
00000040: 086d 333d a0dd 683d 4263 5bbd a81d cc3d
00000050: bd89 1cbc b429 1bbc 1289 903c e107 8b3b
00000060: 55e0 433c 88c6 5b3d 66f5 843e a579 a33d
00000070: 3486 5c3d 4f14 2a3d c10e 7c3d 692e 4c3c
00000080: eff8 0b3e 73df 37bd 2e7a be3d 5677 4e3d
00000090: c569 76bc 0d9c f73d 1cd1 61bd b1b5 0a3d
000000a0: c84c 623d 2f69 e63d 4c83 c93c 6485 2f3d
000000b0: cd6b a33d 999a 533d ec3b 103d 90f3 923c
000000c0: 3898 973b 15f2 913d 53d8 843d e790 a13c
000000d0: 5665 a43d 9814 f13d 7248 113e 482c 8b3d
000000e0: ad4a dc3d 6227 1abc af52 96bd 8d66 743d
000000f0: 1b8c 15bc 2071 d43c 0b15 823b 4569 073e
0.14298807 0.13300313 0.05348124 -0.051710706 0.15101248 -0.020163564 0.03418825 0.044462763
0.08322657 0.04924441 -0.0054379934 -0.046451665 0.061030667 0.08732415 0.071314506 -0.0112106595
0.043805152 0.056851983 -0.053561457 0.09966594 -0.009554324 -0.009470392 0.017643485 0.0042428826
0.01195534 0.05365613 0.25968474 0.07982186 0.053838924 0.041523274 0.061537508 0.012462237
0.1366918 -0.044890832 0.09300648 0.050406776 -0.015039866 0.12090311 -0.055131063 0.03386468
0.055249006 0.11250531 0.02459874 0.04285182 0.07979546 0.051661108 0.035213396 0.017938405
0.0046263 0.071262516 0.06486573 0.019722415 0.08027141 0.11771506 0.14187792 0.06795555
0.10756431 -0.009408804 -0.073399894 0.059668113 -0.009127642 0.025932848 0.0039697937 0.13223751

pre_layer.6.weight f4 [64, 64, 3, 3]
00000000: 9a6f 9dbb 7a39 1dbd a473 d6bd 7d13 ca3d
00000010: f6c5 193d b227 7e3d fc66 af3b 9e69 84bc
00000020: 8d20 01bd 9e5c 0a3e f520 903c ce79 063e
00000030: 04e3 043d d4db b03a 51ce b93d 81ad 513d
00000040: f06a 7f3d c936 c03d ac65 bd3d a516 b0bd
00000050: 49e0 793d f0fb a43b 26d9 5b3d e5a5 b03c
00000060: 792c 403d fe82 d63b 0174 603d 7190 a9bd
00000070: aef4 fe3d 002a 2bbd 8fde 773d 550b f53c
00000080: 22a6 cc3d ce16 d1bd 3329 1cbe 84ca 21bd
00000090: 78d3 f3bd 1230 e6bd 165e 72bc 7f2d c7bd
000000a0: 5895 c0bd e07b f1bd da43 f1bd 7e30 41bd
000000b0: 4765 f1bd 9eef 0bbd b827 3f3d 70c2 833c
000000c0: 438f 303c 9ed0 903c f614 643c 4df5 6abd
000000d0: 3a1a 903c 02ed 8f3d 0e71 bebd b09c b43c
000000e0: 6838 0c3e 0061 d5bb 970d 2a3e 4999 59bc
000000f0: d4a5 fe3d 1513 f73d 8e4f fa3c 9449 113c
00000100: 4514 db3c 0350 223e 584b 873a d163 fabc
00000110: 7b50 583d 30f5 323d 7c44 2a3d 56ac 2c3e
00000120: 5e94 98bd 134e 48bd bd32 88be 858a 79bd
00000130: abbd 763c 9272 1ebe 3718 58be bba8 75be
00000140: 897b 13be c32a f43d 69fa a93d c8d1 c33c
00000150: 05b2 82bb e966 8ebc aa54 f93d e12e 703d
00000160: d891 8bbc 1430 33bd ace0 863c 2ebb 3bbe
00000170: 3a4b ce3c 1438 0abe 974f 0bbe a348 a5bd
00000180: 4c97 6cbd c6d9 93bd 3426 b9bd 5ae3 cb3d
00000190: 562a afbb 1ec4 03be b756 f3bd 561f 9abd
000001a0: 4634 44be 7a27 3a3d 33b9 093b 0ee9 86be
000001b0: bd77 533d c755 82bc fcef 973e 15b8 8fbb
000001c0: b0d4 7cbd b92c 003e 717c 28bc 1d95 c53d
000001d0: 5024 893e 7620 4d3c 3120 3cbd 0a57 e5bc
000001e0: 9e0e b83c 9ed4 333d 0670 073d 520a 1b3e
000001f0: 6ddf 323d f010 ca3d 3bcc 513a 5f4b cd3d
00000200: ce34 7ebc 88db cdbd 0c15 5f3d bb8a c53c
00000210: 47df 1abe f91e a93d e9ad 073d ce18 973d
00000220: 2c5d 353e 0164 b43d 2813 043d 4907 1b3d
00000230: 3097 0f3e f66e a53a f49c cb3d 9c8b 183e
00000240: 48d7 29be ef3e 7ebe 3319 f7bd cf87 00be
00000250: 7cdb ebbd 7325 31bd 1ffd 65bd 3f9c 27be
00000260: 57ee 253d 4ccd 203e 8bd5 f53d c3e5 6b3d
00000270: b090 bbbd ddee ae3c 3851 2a3e d993 eb3c
00000280: 9623 ae3c d118 d83d 847d d03d d978 883d
00000290: c7f8 f9bc cbdc 523d 9740 a13c 7799 c73d
000002a0: a78a 0dbd 15f8 843c aa30 0f3e aa38 b6ba
000002b0: 0e55 a4bb e97b cf3c c70e 2b3e f6c6 083e
000002c0: 207a 773d 9f1f 133e 592a 553d a399 e23d
000002d0: db98 fcbd 5e2c 65be a04a 22be 8e85 503c
000002e0: fe91 1f3d bcc0 f93c 315f 3a3e 5884 7d3e
000002f0: 0d2c 163e 4c6e 2fbd f70e c1bd 3366 d5bd
00000300: 80be a6bc 84ea 79bd 019c 603c 0213 1f3d
00000310: 5a88 79bc edc3 953c 4a02 313d b437 6e3d
00000320: ef5c b43d d7df de3d 1b57 303b ff80 363e
00000330: 2613 91bd 7fcf af3d 3686 553d b518 cdbc
00000340: e085 73bc 8207 0a3e e421 223d b257 1d3e
00000350: 5d5a 993d dccd 03bd 4562 fb3c b431 7e3d
00000360: 7986 75bd e33d 7d3d e513 293e fa8f 58bd
00000370: e9f9 7f3c 8c30 233e d0cd 3a3d 60ef 2d3d
00000380: 019d 8a3d 10c6 19bd 982d a0bb 038c 373c
00000390: 522e 1fbd 72ad a5bd a53c 70bd 2f04 97bd
000003a0: 843c 86bc 5154 4c3c 0bce 90bc dccf 8c3d
000003b0: 3a20 4dbe 2ce9 a9bd 8a1d 18bd fcbb 4ebe
000003c0: 03a9 29bc d902 f93d 5cf6 b4bd 5250 eb3b
000003d0: b495 993d f783 f93d 2f9e b5bd f0bb 723d
000003e0: 88cd 473e 0024 b9bd 5248 8d3d ee64 203e
000003f0: 5137 e53c 71fe 1d3d 0c76 0bbe ad10 58be
-0.0048045637 -0.038384892 -0.104712754 0.09866998 0.037542306 0.062049575 0.005352853 -0.016163643
-0.031525183 0.13511893 0.01759384 0.13132402 0.03244306 0.0013493248 0.09072555 0.051190857
0.062357843 0.093854494 0.09247908 -0.08598069 0.06100491 0.005034916 0.053673886 0.02156348
0.046917412 0.006546377 0.05479813 -0.08279503 0.12449013 -0.0417881 0.060514983 0.02991263
0.09992625 -0.10209428 -0.15250091 -0.039499775 -0.11905569 -0.112396374 -0.01479294 -0.097254746
-0.09403485 -0.117912054 -0.1178052 -0.047165386 -0.11786895 -0.034164064 0.046668738 0.016083926
0.010776344 0.017677601 0.013921013 -0.057362843 0.01759063 0.070276275 -0.09298907 0.02204737
0.13693392 -0.0065118074 0.16606747 -0.013281175 0.12433973 0.120641865 0.030555513 0.00886764
0.026743064 0.15850835 0.0010322137 -0.030565174 0.052811127 0.04369086 0.041569218 0.16862616
-0.07450174 -0.048902582 -0.2660121 -0.06092312 0.015059869 -0.15473393 -0.21102987 -0.23990147
-0.14402594 0.11922219 0.08299715 0.023903742 -0.0039885067 -0.017383056 0.121743515 0.058638457
-0.017037317 -0.043747023 0.016464554 -0.18333122 0.025182355 -0.13497955 -0.1360458 -0.08070495
-0.057761475 -0.07219271 -0.0904049 0.09955473 -0.005345623 -0.12867782 -0.11881774 -0.07525508
-0.19160566 0.045447804 0.0021014928 -0.26349682 0.051627863 -0.015910042 0.2967528 -0.004385958
-0.061726272 0.1251706 -0.010283575 0.09647582 0.26785517 0.012519946 -0.045929138 -0.027995605
0.022467908 0.04390394 0.03306582 0.15140656 0.043670107 0.09866512 0.000800315 0.100241415
-0.015515519 -0.10051638 0.05446343 0.024114003 -0.15124236 0.08257861 0.033124838 0.07377778
0.17711323 0.08808137 0.03224483 0.037848745 0.14022517 0.001262157 0.09942046 0.14897007
-0.1658603 -0.24828695 -0.12065353 -0.12551807 -0.11516473 -0.043248605 -0.0561496 -0.16368197
0.0405105 0.15703315 0.12003621 0.057592165 -0.09158456 0.021354133 0.16632545 0.028757023
0.021257203 0.10551608 0.1018019 0.06663675 -0.030514134 0.051480096 0.01968412 0.09746068
-0.034556057 0.016231576 0.13983408 -0.0013902385 -0.005015022 0.02532764 0.16704856 0.13357148
0.0604192 0.14367531 0.05204234 0.1106446 -0.12333842 -0.22380206 -0.1584878 0.012727154
0.03895759 0.03048741 0.18200375 0.24757516 0.14665242 -0.042829797 -0.094266824 -0.104198836
-0.02035451 -0.061014667 0.013709069 0.038836487 -0.015230263 0.018281901 0.043215074 0.05815859
0.08806788 0.10882538 0.0026907388 0.17822646 -0.070837304 0.085844986 0.052129947 -0.025036195
-0.014863461 0.13479427 0.039583102 0.15365484 0.074879386 -0.032178745 0.030686507 0.06205912
-0.059942696 0.061826598 0.16511495 -0.05287168 0.015623548 0.15936488 0.045606434 0.042464614
0.06768227 -0.037542403 -0.0048882477 0.011202815 -0.038862534 -0.08089723 -0.058651585 -0.07373845
-0.016386278 0.0124712745 -0.017676374 0.068755835 -0.20031825 -0.08296427 -0.037137546 -0.20188898
-0.010355237 0.12158746 -0.08836052 0.007181206 0.07499257 0.121833734 -0.08868062 0.059261262
0.19511998 -0.090400696 0.0689856 0.15663502 0.027980478 0.038572732 -0.1361925 -0.21100111

pre_layer.6.bias f4 [64]
00000000: b281 4e3e 376d 113e b32f 413e f122 ea3d
00000010: 0c16 eb3d c9af aa3d e684 0d3e 95d7 43bd
00000020: 1049 93bb e679 163c a0e1 1b3c 48d3 403c
00000030: d8e1 ddbb eb3f 4b3e bfa4 0d3d 26c0 513c
00000040: dceb 573e 08ed d73d 7756 dc3d bf84 483c
00000050: 57e0 5a3d 528e 71bc db9f 133e 8ac5 283e
00000060: bfce bfbc 23ea 773d 7879 393d 96fa c43d
00000070: 7efb 933d 0ef3 3a3e 4da5 d43d e3eb 563e
00000080: afc3 65bd 421b 033e 7a66 a23d 892d 923c
00000090: 7afa febb 763c 493e c9c4 3b3e f4d9 fa3d
000000a0: 2ae0 fb3d 3d1b 623d 6bfd 233e 715f ef3d
000000b0: c09c 0e3e 18e1 2f3e ab63 3e39 c796 213d
000000c0: bcc5 613e 5575 b03d 2dcc 943c 1032 f63d
000000d0: 09e3 093e ebb4 c03d d1cf 063e 17c2 003e
000000e0: 496d 553d 1529 fa3d 8c44 34bc 1e9b 8c3d
000000f0: 5c1a c73d 8a82 d03d a65c 8f3e eabd e33c
0.20166662 0.14201818 0.18865852 0.11432446 0.114788145 0.083343096 0.13820228 -0.047813017
-0.0044947937 0.009184336 0.009514242 0.011769123 -0.0067713074 0.19848602 0.034580942 0.012802159
0.21086067 0.10543257 0.10758679 0.01223868 0.053436603 -0.014743404 0.14416449 0.16481605
-0.023414014 0.060526025 0.045281857 0.09618108 0.07225703 0.1825678 0.10383091 0.20988421
-0.05609482 0.12803367 0.07929702 0.017843978 -0.007781324 0.1965197 0.18336786 0.122486025
0.12298615 0.055201758 0.1601464 0.11688126 0.13926983 0.1717571 0.00018156941 0.039450433
0.22048086 0.08616129 0.018163765 0.120212674 0.13465513 0.09409507 0.13165213 0.1257404
0.052106176 0.12214867 -0.011002671 0.06865524 0.097218245 0.10181148 0.28000373 0.027800519

pre_layer.9.weight f4 [128, 64, 2, 2]
00000000: c1bf ccbd 2fad 863d 39c1 623d 2356 9c3d
00000010: 4c99 013d 6bc2 0d3e bb2e c53c 45bf a0bc
00000020: a9a3 0b3e 0a2e 96bc 5b96 b23c ed11 36bc
00000030: 3cd9 71bb b895 df3c a438 9e3c 2b7a 7b3d
00000040: b83e 863d 1365 f93a 19bd 833d 3095 34bd
00000050: 61ab f7bb 34a6 41bd 3650 f33d ed71 773d
00000060: 91c9 463d ae7c 14bd 0086 dd3d 2208 353c
00000070: 336c 40be 4a29 09be f071 17be ed2b bcbd
00000080: 30a8 813c 107a b03c d981 1a3e 7b54 833d
00000090: 7507 bf3b 910a 84bd b935 91bd 8bad 003e
000000a0: 5697 f6bd 9315 a0bd e83d b3bd bef8 24ba
000000b0: 7b62 09be 7e0a d13c 0d44 423b e6f7 933c
000000c0: fbc9 7bbb 154e 9bbd 5bea 5ebd c069 45bd
000000d0: 134f 0b3e b942 37bd b607 9f3d 7f1a 9c3c
000000e0: abd2 32bd 3887 0c3d 4b48 023d 1179 e6bb
000000f0: dd95 ae3c 046e cc3d 2f2a 9dbd 64c7 0abe
00000100: ca27 b43d 0e5f 193d 0d36 a6bc 4465 c3bc
00000110: 1c3a ca3b 7de7 313e 580d b9bc 0a54 f03d
00000120: f3f1 e5bc c97f a03d e2c0 eb3d b441 eb39
00000130: fe5e 5fbd 822c 43bd 7dc4 1bbc 0d82 6fbd
00000140: cec0 88bd 8c93 02bd e089 8a3d a3e1 85bd
00000150: 6759 78bd f970 b7bd 5214 1fbe 56a7 bbbc
00000160: 6d86 edbd 5a82 57bd 1290 923d 707c 57bd
00000170: f12b 543d 9ab7 54bd 9e3a 523d 5221 02be
00000180: 8ca4 e9bd 5132 883d 6c7e bdbc d4a0 793d
00000190: 3476 08bd 7279 b53c 144b c5bc 1f59 6d3c
000001a0: db4b 0fbc 74e2 8d3c 6876 213c 3fdf 92bd
000001b0: 9a02 bf3c 1371 e7bd df23 433e fdb6 b2bd
000001c0: 01bb 50bd df70 9ebb 88df 943c 284b 433c
000001d0: c6d5 3cbd 0c9e ef3d f65f 353d 9454 9b3c
000001e0: 8b21 ba3d 863c a1bd 0456 623d 44b1 08bd
000001f0: 361e 043c b146 803d 6dba 66bd bf36 2f3c
00000200: bc1c 17bd e9d4 813d 7ad3 233d 80df e53d
00000210: 3483 253e 6a35 4d3e a054 f43d 2ec7 993d
00000220: 925c 1cbd 3e8e 0abe 96cc 233d 4777 29bd
00000230: 77d2 383b a97c 49bc 9a27 283c fd35 303c
00000240: 5453 ad3d 828d 79bd 9ad5 d0bb 26a1 7a3d
00000250: 94ff b63c 3971 5e3d adcb 9cbb 2224 a7bd
00000260: edfb 26bd e56d 9fbb 62d6 5abd 6444 903c
00000270: 23db b33d c862 b7bd e445 f23d caa8 08bd
00000280: 1f9b cb3d dbe9 8f3d ab47 5abd 8b2f 5d3d
00000290: e2ae 843d 27a4 e83b 2e45 4fbd 12c8 7b3c
000002a0: 48ab 8f3c b197 433d 0546 6b3b 21a2 ed3d
000002b0: a780 9c3d dcdb b13d 3022 7c3d 6ca7 ef3d
000002c0: fd7e 783c c009 c63d 12e2 d8bc 98ed 143e
000002d0: bedc 9dbc c8db aabc bc38 783c b4e9 8bbc
000002e0: d8da a0bd 48d6 98bd f7f1 08be 1637 eebd
000002f0: 952d 913d 7739 463d 6309 ad3d 3bf8 313d
00000300: 4cfe 033e 98d8 90bc 6609 313d 9cef 88bd
00000310: cfea 293d 12b8 fa3c ed59 863d 2452 03bd
00000320: 75f6 a5bd f600 8abc 021d e0bc 4503 41bd
00000330: 259b a4bc 0748 bd3d f82b 873d 50f6 7c3d
00000340: 5326 a9bc be3f ba3c 8f3f 47bc 91fd 623d
00000350: 68e2 313c ae93 c33d 5c9d a4bc 19e3 c33d
00000360: f481 9f3c 7d44 a03c aab1 0dbd fa2a 183e
00000370: 1065 11be 7526 9bbc 6e83 4a3d 7fcc b1bd
00000380: b1f2 77bd d53d b8bd 4a87 83bd 3fc5 cfbc
00000390: a8dd 0ebe 8854 66bc 0e61 43bc f32e b03d
000003a0: aeda 983d 0a20 01bd 3478 f03d a5bb 633d
000003b0: 7534 a2bd d4ff 14be 1e9a 773d b2e7 f9bc
000003c0: 6dda 24bd a6c3 183e ab86 bd3c ea68 7a3d
000003d0: d625 153e dc15 4a3d da44 e23d ffaa 4cbc
000003e0: 4091 b4bc cc86 d0bd f1f2 e2bc e3be 4b3d
000003f0: de01 923d 1787 fcbb 59db 8b3b 8fce 863d
-0.09997512 0.06576001 0.055360053 0.07633617 0.031640336 0.13843696 0.024070134 -0.019622454
0.1363665 -0.0183325 0.02180021 -0.011112672 -0.0036903163 0.027293071 0.019314118 0.061395805
0.065549314 0.0019027315 0.06432552 -0.04408759 -0.0075582718 -0.047277644 0.118805334 0.060411382
0.048532072 -0.036251716 0.10816574 0.011049302 -0.18791275 -0.13394657 -0.14789557 -0.09188066
0.015827268 0.021542579 0.15088595 0.06412598 0.0058297464 -0.06447328 -0.07090325 0.12566201
-0.12040584 -0.07816615 -0.08752042 -0.0006293169 -0.13416474 0.025517698 0.0029642612 0.018062543
-0.003841995 -0.07583252 -0.054422718 -0.048196554 0.13604383 -0.044741366 0.077651426 0.019055603
-0.04365794 0.034308642 0.031807225 -0.007033475 0.021311695 0.09981921 -0.076740615 -0.13552624
0.08796652 0.037444167 -0.020289445 -0.023851998 0.006171478 0.17373462 -0.02258937 0.11734779
-0.028069472 0.07836873 0.11511399 0.00044871646 -0.05453395 -0.047649868 -0.009507296 -0.058473635
-0.066773996 -0.031878993 0.06764579 -0.065371774 -0.060632136 -0.08957095 -0.15535095 -0.02290694
-0.11597905 -0.052614547 0.071563855 -0.052608907 0.05179972 -0.05193291 0.051325433 -0.12708023
-0.11408338 0.06650222 -0.023131572 0.060944393 -0.033315852 0.022152636 -0.024083652 0.01448658
-0.008746113 0.017319895 0.00985489 -0.07171487 0.02331667 -0.11300864 0.19056652 -0.087263085
-0.05095959 -0.0048352326 0.018172994 0.011919774 -0.046102308 0.11700067 0.04428097 0.018961228
0.09088429 -0.07872872 0.055257812 -0.03337218 0.0080638435 0.06263483 -0.056330133 0.010694205
-0.036892638 0.063394375 0.0399966 0.1122427 0.16163331 0.20039907 0.119302034 0.07508694
-0.03817422 -0.13530824 0.03999003 -0.041373517 0.0028201619 -0.012297788 0.010263348 0.010755059
0.08463159 -0.060925968 -0.0063731195 0.06118884 0.022338666 0.054307196 -0.004785022 -0.08161189
-0.0407676 -0.0048653954 -0.053427108 0.017610736 0.087820314 -0.08954388 0.11829737 -0.033364095
0.099416964 0.07027026 -0.053291004 0.05400042 0.06478669 0.0070996466 -0.050603084 0.015367525
0.017537728 0.047752086 0.003589989 0.11603189 0.07641726 0.08684513 0.06155604 0.11701855
0.015166995 0.096698284 -0.026474986 0.1454376 -0.019270297 -0.020856753 0.015150245 -0.017079212
-0.07854241 -0.07462746 -0.13373552 -0.116316006 0.07088772 0.048394646 0.08449056 0.04344962
0.12889975 -0.017681405 0.043221854 -0.06686327 0.041483697 0.03060535 0.06560121 -0.032060757
-0.081036486 -0.016846161 -0.027357582 -0.04712226 -0.02009351 0.09242254 0.06600183 0.06175834
-0.020648157 0.022735473 -0.01216115 0.0554176 0.010857202 0.09549652 -0.020094566 0.095648
0.019471146 0.019563908 -0.03459326 0.14860144 -0.14198709 -0.018939236 0.049441747 -0.08681583
-0.060534183 -0.089961685 -0.06422289 -0.025362609 -0.13951743 -0.01405824 -0.011924995 0.08602705
0.07463585 -0.031524695 0.11741677 0.055598874 -0.07920162 -0.14550716 0.060449712 -0.030505989
-0.04024737 0.14918384 0.023135504 0.06113521 0.14565215 0.049337253 0.11048289 -0.0124919405
-0.022041917 -0.101819605 -0.027703734 0.04974259 0.071292624 -0.0077065337 0.0042680916 0.06582367

pre_layer.9.bias f4 [128]
00000000: 881d f83d 64c8 303e 24ae 703e a29f 0d3a
00000010: 8473 ff3d c8d4 893d 4a17 d03d 38aa 263e
00000020: 7a24 043d 0bd4 313e 6601 7d3e f6c6 b43c
00000030: 0f2a 143e f75c 263e cdd3 52be 74a2 f13d
00000040: e991 803d 1b65 2a3e 5bbf 3e3d 6ce6 803e
00000050: 4de1 903d 031b 1d3e f3e0 be3d 518b a53d
00000060: d83b a93e 0420 9a3e 5186 453e 70cb 103e
00000070: f567 423d 8468 f23b 2df9 f83c 9e49 3a3e
00000080: 4c19 0c3e 7015 ca3d c8cc fa3a 7810 9b3c
00000090: 3af5 883d 4c22 2e3e f488 db3d 1988 453d
000000a0: de4e f13d a08c 8f3d 652c 363c 879e 1e3e
000000b0: 54ea 103d 3a1f b33d f9de 9c3d a134 863d
000000c0: 8d05 913e 4591 7d3e a2e5 5d3e ad11 df3d
000000d0: 456e 893d e216 16be 40a3 843e 974b 4c3e
000000e0: d2ee 0e3d 2d5b 9a3b af97 9a3d 620d 1a3e
000000f0: 478b 6b3e 99b8 093e 1dae ae3d 7ade 6d3d
00000100: f0c3 d03d 27bb ce3d 803e 673d 536b 113e
00000110: d782 993d 8af4 943c 4a3d 013e a09b 70bd
00000120: 7125 e53c 77e9 8b3d 30e6 3e3c c1fd 023e
00000130: d607 29bc 98e0 303e cd6e e33d 2d45 033f
00000140: 13d7 ed3d 13d0 c83d b4dd 1a3e 2ea7 fa3c
00000150: efe5 133e 1e06 973d 4494 283e ccf6 213e
00000160: 41be 223e fdf6 1a3e 2b63 c8bc c913 923d
00000170: 1931 e13d 3bd7 18bd 7810 503e 88b5 0c3d
00000180: 0f1e b33c 9110 b43d 8adb 743d 4885 063e
00000190: 90dc 723d 8015 203d a71e 863c e21e c93d
000001a0: 7eae 743e a490 cf3d bc2b 8dbd b9aa a13d
000001b0: 022f fa3d 739d b73d 9554 823e 0b60 373d
000001c0: 8c04 a73d 1b04 0b3e 0967 9b3e c883 8b3d
000001d0: 2a09 5c3e d63f 813e f028 e63d 616c 42bc
000001e0: 83be 10be 840f 0d3e 5034 453d 83dd c93d
000001f0: 9922 2e3d e01f 253e 06d8 c33d bb66 173d
0.12115008 0.17263943 0.2350393 0.000540251 0.12473205 0.06730038 0.10160692 0.16275871
0.03226135 0.17366044 0.24707565 0.022067528 0.14469169 0.16246401 -0.20588608 0.117985636
0.0627783 0.16640131 0.04656921 0.25175798 0.07074223 0.15342335 0.093202494 0.08083213
0.3305347 0.3010255 0.19289519 0.14140105 0.047462422 0.007397713 0.030392254 0.18192145
0.13681525 0.0986737 0.0019134516 0.018928751 0.06687398 0.1700527 0.10719481 0.048225496
0.11782621 0.07009244 0.011118983 0.15490161 0.035379723 0.0874619 0.07659716 0.06553007
0.28324547 0.24762447 0.21669629 0.10892043 0.06710485 -0.14657167 0.259058 0.1995071
0.034895726 0.004710576 0.075484626 0.15044168 0.23002349 0.13449325 0.08529303 0.0580735
0.10193622 0.1009429 0.05645609 0.14201097 0.07495659 0.018183012 0.12621036 -0.058742166
0.027971955 0.06831639 0.011651561 0.12792112 -0.01031681 0.17273176 0.11105118 0.5127743
0.11613288 0.09805312 0.15123636 0.030597296 0.14443181 0.07374214 0.16462809 0.15816802
0.15892889 0.15133281 -0.02446135 0.0713268 0.10995693 -0.037314635 0.20318782 0.03435281
0.021864919 0.08792222 0.05977968 0.1313678 0.059292376 0.039083004 0.016372038 0.098203436
0.23894688 0.1013501 -0.06893107 0.07893891 0.12215997 0.08965578 0.25455156 0.044769328
0.08155164 0.13575785 0.30352047 0.06812245 0.21487871 0.25244015 0.11238277 -0.01186666
-0.14135174 0.1377545 0.048145592 0.09856703 0.042513464 0.1612544 0.095626876 0.036963206

conv5.weight f4 [256, 512]
00000000: 8978 0dbe d509 273c a710 86bd fda7 63bd
00000010: a6b6 88bd 0d83 25ba 9dcd 1abe 4d27 0fbe
00000020: 0eb3 94bd b4f0 873d 5b9d ecbd 6294 26be
00000030: 72a6 1c3d 1767 55bc fc12 853c 22f8 f9bd
00000040: ff29 bdbd d1db d2bd d1c1 a1bc c0aa eabc
00000050: c348 c6bc fa08 263d 2e80 913c 49a8 8c3d
00000060: 19ab 65bd 7795 84bd aebe 72bd 0917 f8bd
00000070: b14e b3bd f578 a33d 1034 9fbd c4e0 95bd
00000080: 5e9e 2b3d 843c 833d 33cc 323d 8b10 b6bd
00000090: fa09 64bd 26b3 b9bc e936 a1bd 793b d8bd
000000a0: 316a 3ebc 2319 833d 5f06 acbd fed9 6cbd
000000b0: 53c0 933b 99f9 013d 49c7 0c3c 9bb2 ae3d
000000c0: 4246 03be 56c0 a8bd 2c0b b53b 8070 863c
000000d0: 242b 993d 0d77 1c3d 1f7c e83c 4650 25bd
000000e0: c060 74b8 273f 99bd 1994 b7bd 17d8 14be
000000f0: b74a e7b8 0743 86bd 6d65 b9bb 9a4d 0ebd
00000100: 0067 013c 70da 943d de1c 23bd 1b5c 323d
00000110: b782 1bbe 28e4 7e3d 3ef0 64bd 2e30 9cbd
00000120: 03fe 4a3c ac1e 63bd a768 7bbc 44bb 8cbd
00000130: 5d56 5cbd 9b9a 98bd 049c 1fbe 9e93 29be
00000140: 1d13 b2bc 15d6 113e ae75 0a3d 76ca 523d
00000150: 4a81 973c e53d da3c 48ae 253d 8817 353d
00000160: ab5c d63d ad57 903d 4675 87bc a296 20bd
00000170: fc50 d63d 896b c23d 7eff d03c 8ecb 593d
00000180: 7133 89bd 59c4 aabd f711 e0bc 6546 86bc
00000190: 0361 4cbd f0b1 55bd ebd2 dcbd e19d 33be
000001a0: 126b 97bd 4258 9bbd d8f7 30bd ff1a 84bd
000001b0: 8daa c3bd 0973 083d 5096 c1bd d128 093e
000001c0: 3ed9 ed3c 5644 83bd 5965 b4bd 37c8 6bbc
000001d0: f30b b8bd 5ba9 93bd 1251 35be 899b e1bc
000001e0: 2bf4 503d 0670 6c3b 8dd0 6d3d 6557 b73c
000001f0: b3a6 963d 6744 f6bb 285e 9ebd 49b1 b1bc
00000200: 8dad 7abd 00ee c23d e4e7 d63a 1689 2cbc
00000210: a50b 6ebd cc16 dfbd 7852 a5ba 11dc 593c
00000220: a155 f6bc 4997 e13d 0436 a6bd 171f 56be
00000230: 9bc6 86bd 8413 acbd e169 a9bd 19ed a0bd
00000240: 3e78 7cbd 6be8 033d e9d7 64bd 10f5 d2bb
00000250: 1d8b bdbd 51e9 ebbd ea5b adbd 6033 58bd
00000260: 31d5 1c3e e02a 2ebd 63e6 aa3d 0661 ea3d
00000270: cda1 88bc 6c65 2b3e 60bd 753d 7ba9 00be
00000280: 2914 e03d 90d6 543c 2085 673d ebc3 073d
00000290: fc70 353b 0db9 ecbd 8713 953c 71f3 083d
000002a0: 8ddd 9bbd 9ad2 c4bd c211 e9bc d473 5abc
000002b0: 1e19 05be 2aed 7bbd 0794 e6bd 4c6a a03d
000002c0: 0a86 11be 35c5 b13d 730d efbc ccfa 35bd
000002d0: d91a d7bb 0652 fcbc f22f 39bd b39b 21be
000002e0: 4fbf 26bd 36fe 33bb b752 a23b a6bd 883b
000002f0: 351a 22bc a65d 8a3c e2e9 063e 0137 913d
00000300: 71aa dbbd 589d 81be 99a5 e9bd 033a c3bd
00000310: 6b89 163e b9c6 32bc b5f7 83bd 512b 8fbd
00000320: 117d d93c 6f42 62bd 5b45 cbbd f42f c1bd
00000330: ada3 3dbb d6cb e23d 4e5f a7bc 1b88 c03d
00000340: 0db6 f63b b7b4 d6bb 22de 6b3d dca8 a43c
00000350: 749a 59be d43e 21be f996 f2bc 3dd3 5fbd
00000360: a293 78bd cd92 023e c111 c5bd 0fc1 fa3d
00000370: 9192 b13c 77c3 70bd 3564 a53b c87c 53bd
00000380: 83ac 55bd d6a7 813d 1baa c53d b3c9 863d
00000390: f615 ca3d 912e 00bc 3474 993d 6124 c6bc
000003a0: fafd 723d d63f 35ba 3112 97bd 0a32 7bbd
000003b0: 9812 24be 1910 493c 7964 9fbd e64a b1bd
000003c0: d2cd cbbd 1e97 4abd a57a 4cbe d7b1 b33b
000003d0: 5ffc a33d 5bd7 c03c 928c 003c 6230 af3d
000003e0: 4aad 903b 6163 6ebd 4087 d93d af42 843b
000003f0: 3717 bb3c 4306 bf3d c922 af3d 5982 853d
-0.13815512 0.010195215 -0.06546145 -0.055580128 -0.066754624 -0.00063137786 -0.15117498 -0.13979836
-0.072607145 0.06637707 -0.11553451 -0.16267541 0.038244672 -0.013025067 0.016244404 -0.12205531
-0.09236526 -0.10295833 -0.01974574 -0.028645873 -0.024204617 0.040535904 0.017761316 0.06868035
-0.056071375 -0.06473821 -0.059263878 -0.121137686 -0.087552436 0.07982055 -0.07773602 -0.07318261
0.041899078 0.06408027 0.04365177 -0.08889874 -0.055673577 -0.022668432 -0.078718014 -0.105582185
-0.011621998 0.06401279 -0.08399653 -0.05782508 0.004509011 0.031732175 0.008592435 0.0853016
-0.1281977 -0.0823981 0.0055250134 0.016411066 0.074789315 0.038199473 0.028379498 -0.040359758
-5.826424e-05 -0.074827485 -0.08963794 -0.14535557 -0.00011028855 -0.06555753 -0.005657843 -0.034741975
0.007898092 0.07268226 -0.03982245 0.04354487 -0.15186583 0.062229306 -0.055893175 -0.07626377
0.012389663 -0.055449173 -0.015344775 -0.068716556 -0.0537933 -0.07451364 -0.15586859 -0.16560218
-0.02173763 0.14241822 0.033803634 0.051462613 0.018494267 0.026640842 0.04044941 0.044211894
0.10466894 0.07047973 -0.016535413 -0.039206155 0.10464665 0.09493167 0.025512453 0.05317264
-0.06699265 -0.083382316 -0.027352316 -0.016390989 -0.049897205 -0.052171648 -0.10782417 -0.17540695
-0.07393469 -0.07585193 -0.043205112 -0.064504616 -0.09554014 0.03331283 -0.09452498 0.13394476
0.029034253 -0.064095184 -0.08808393 -0.014390997 -0.08986654 -0.07210036 -0.17706707 -0.027539985
0.051014107 0.0036077513 0.058060218 0.02238054 0.07356014 -0.0075154784 -0.07732803 -0.021690981
-0.061200667 0.09518051 0.0016396013 -0.010530731 -0.058116574 -0.1089302 -0.0012613079 0.013297097
-0.030070128 0.110151835 -0.081157714 -0.20910297 -0.0658085 -0.0840216 -0.08272148 -0.07857723
-0.06163811 0.032204073 -0.05586997 -0.006437905 -0.092550494 -0.11519111 -0.08464797 -0.05278337
0.15315701 -0.042521358 0.08344724 0.11444287 -0.016678715 0.16737908 0.059995055 -0.12564652
0.10941345 0.012990609 0.056523442 0.033145826 0.0027685752 -0.11558733 0.018197788 0.03343529
-0.07610617 -0.096104816 -0.02845085 -0.01333328 -0.12997863 -0.061505474 -0.11258703 0.078327745
-0.14211288 0.086801924 -0.029181218 -0.04442863 -0.00656448 -0.03080083 -0.04521174 -0.15782051
-0.04070979 -0.0027464754 0.004953708 0.0041729985 -0.009893944 0.016890358 0.13175157 0.07090569
-0.107258685 -0.25315356 -0.11408538 -0.09532549 0.14700858 -0.010911637 -0.06443731 -0.06990684
0.026548894 -0.055239137 -0.09925338 -0.094329745 -0.002893667 0.11074035 -0.020431187 0.0940096
0.0075290264 -0.0065523046 0.05758489 0.02010005 -0.21250325 -0.15746623 -0.029613005 -0.054644812
-0.06068767 0.12751313 -0.09622527 0.12243854 0.021676334 -0.05878016 0.005047346 -0.051632673
-0.052166473 0.0633084 0.09651586 0.0658144 0.0986747 -0.007823602 0.07492867 -0.024187269
0.059324242 -0.00069141143 -0.073765166 -0.061327018 -0.16022718 0.012271904 -0.077828355 -0.08656864
-0.099513665 -0.049460523 -0.1996866 0.0054838466 0.0800712 0.02354019 0.007846015 0.0855415
0.004415189 -0.058200244 0.106215 0.0040362696 0.022838218 0.09327366 0.085515566 0.065190025

conv5.bias f4 [256]
00000000: d472 933c d7e4 663c f240 b33d 4e08 033e
00000010: 8de2 fb3e 19cd d43e b377 e4bc 5821 19be
00000020: ba83 12be 6718 213e 557f 043d 9cc7 993d
00000030: b616 e2ba 3993 833d 3848 aabc a320 8f3a
00000040: 344e 283d 8f9c 343e 0eaf 42bd a3e4 00bd
00000050: faea 3bbe e19b 6a3e 5b92 493b f035 163d
00000060: 8cb3 b93d 373d 1ebd 8262 4b3d 9748 953d
00000070: afc0 aabd c0e8 1abb 0877 eebd 2322 b83c
00000080: b976 8d3e 58b6 4c3e 8dda 3dbd f055 573d
00000090: 3112 04bb 15a4 8ebe 1dcd 31be 0f4f 313d
000000a0: 1d9f 2a3d 4304 e7bc 247c 74bc 35ef 453e
000000b0: dc28 7cbe 5432 eb3d cd52 72bd e334 a3bd
000000c0: 467f d03e 34e1 5cbd 5d64 443d e8a0 83bc
000000d0: b2f5 0dbe 9df1 34bd 58f0 0bbd 6961 6b3c
000000e0: 2b3e c03e be2f 8c3e 977e e4bd 32ef 4ebd
000000f0: 332c 5a3d 21b4 383b 6ffa f73d c5f5 5c3c
00000100: 88c7 c6bb 0470 74bd 9f6f 043d 65e5 72bd
00000110: a404 3c3d d578 85bc 3201 92bd 4335 9fbe
00000120: a6d6 abbc c9be 193f 69de 82bd 95a0 433c
00000130: f8eb 19be 7ded 75bd 783b 713e a8db 37bd
00000140: b298 493b b7e8 42bd 0f11 4f3d b6aa 2d3e
00000150: c378 27bd d2d6 0bbd f06b 093e e011 2e3d
00000160: 9bbf 4b3f f639 3ebd 3ba8 a23d d471 62bc
00000170: f06a 293d f5e3 ee3c d362 59bc 14c9 d7bd
00000180: d242 febd ac6b a23c 74b2 79bc 8bef 04bd
00000190: 20aa 01bd 4062 f23e 22a1 0abd a4a3 bd3d
000001a0: 9a5c 43bd f779 0dbc be00 75bc ce9f 903c
000001b0: 209b 55bd f2c0 3b3e 6111 7fbd 6640 eebd
000001c0: 53a0 de3c 813d e43a 2b91 f9bb fd9a 72bd
000001d0: f98e 1b3f 2045 493d d241 953b 52e5 d6bd
000001e0: d1d7 6cbd 669c 2c3e 7582 4cbd a1ef 9ebc
000001f0: f287 aa3c 78a6 b9bc ede8 313e 8cb5 5abe
00000200: b736 46bd c97c ebbd 3ce0 823d 73c8 3d3d
00000210: 4b98 84bc 5f4c e83d 7743 ddbc 5865 913d
00000220: dc7c c4bc a3a6 6cbd abbf e3bd 99fa 7f3d
00000230: 7cc3 16bd e265 fcba 18c9 a13e 1508 85bd
00000240: d734 963c 6003 bebe 5ce6 c0be a89d 1c3d
00000250: 0593 7d3d 6ffa 633f 6e4b ec3c 527e 353d
00000260: 8242 513d 8e4f 01be 9494 e5bc 74ea cbbc
00000270: 9a6f 54bd ba58 e63d b923 12bd 9d48 efbd
00000280: 3e6b 28bb 16f7 84bc fbf4 143d 41f7 79bd
00000290: c9bc 693c 049f 2a3f 43eb 7abd 919e 563d
000002a0: 03fa 82bd ee53 80bd 85be f43e 5346 303d
000002b0: 47bf 103d bd34 873d 30a2 dc3d 9d5d b9bc
000002c0: a920 af3b b6b4 0cba 41fa 69bd 2f31 09bc
000002d0: dd31 74be 7a43 be3c 5808 963e 513b 9cbd
000002e0: 31c8 f53c 7102 333d f42a 6b3d 8ed7 08bd
000002f0: df12 46bd 8811 18be e174 30bd a876 ce3e
00000300: d5cd b2be 6ece d43c 15d1 21be 33f3 febc
00000310: c105 13be 7893 6cbd a243 6cbd 3859 10be
00000320: cabf e23e f207 1fbd 3719 d5bc b60f 193d
00000330: bd22 9abd 43d6 28bd 1e1f 32be 98ce 343e
00000340: af7d 3cbe d3cc 1f3d 198a 953e 4497 143c
00000350: 544a 013d 2b93 83bd c350 93bd 1394 823c
00000360: 19fc 1ebe 5363 d3bc 6123 913d 20c9 1b3d
00000370: cde9 57bd 1bb5 293d 1a61 60bc a56c f13c
00000380: f512 973e 3dfe 893d 79e6 513c 4905 a73e
00000390: e5a1 4d3e d887 c53c 45f7 54bd 13d9 65bc
000003a0: 61c6 ccbd 0e21 c1bd 2a24 3f3c 5a31 223e
000003b0: 772f be3d aaa8 fcbd 10d1 633c 40c5 2abc
000003c0: ea53 eb3c 24cf 053d 2991 94bd b222 963d
000003d0: ce24 243d 0018 54bd 71c8 3cbd 358e 73bd
000003e0: 6b50 a13d 0f9a a93d 687c bebd 0053 113d
000003f0: 072b 1a3c 4966 d73d d2e5 b7bd e445 6a3e
0.01799909 0.014092646 0.08752622 0.12796137 0.49196282 0.41562727 -0.027889108 -0.14954126
-0.14308062 0.15731965 0.032347996 0.075087756 -0.00172492 0.06424565 -0.02078639 0.0010919761
0.041090205 0.17637847 -0.047530226 -0.031468045 -0.18351355 0.22911026 0.00307574 0.036672533
0.09067449 -0.038632598 0.04965449 0.07289236 -0.08337533 -0.0023637265 -0.11643797 0.022477215
0.2762964 0.19991434 -0.046351004 0.05257219 -0.0020152444 -0.2785956 -0.17363401 0.043288287
0.04165565 -0.028200274 -0.014922176 0.19329531 -0.24624962 0.11484209 -0.059160996 -0.07969072
0.40722102 -0.053925708 0.047947276 -0.016067937 -0.13863257 -0.044175733 -0.034164757 0.014366486
0.3754743 0.27380174 -0.111569576 -0.050521083 0.053264808 0.0028183537 0.12108313 0.01348633
-0.0060662664 -0.05967714 0.032333013 -0.0593008 0.045902863 -0.016292969 -0.07129134 -0.31095323
-0.020976376 0.6005674 -0.063900776 0.011940141 -0.15031421 -0.06004094 0.23557842 -0.044887215
0.003076118 -0.047585215 0.050553378 0.16959652 -0.04088665 -0.034140415 0.13420081 0.042497516
0.7958924 -0.046441995 0.07942244 -0.013821084 0.04136175 0.029161433 -0.01326819 -0.105363995
-0.12415089 0.019826733 -0.0152403 -0.03245501 -0.031656384 0.47340584 -0.033845074 0.092597276
-0.047695734 -0.008635036 -0.01495379 0.017654326 -0.05214989 0.18335322 -0.062272433 -0.11633377
0.027176058 0.0017413349 -0.0076161823 -0.05922984 0.60765034 0.04913819 0.0045549655 -0.10492958
-0.057823006 0.16856536 -0.0499291 -0.019401373 0.020816777 -0.022662386 0.1737401 -0.21358317
-0.048392024 -0.1149841 0.063904256 0.04633374 -0.0161859 0.11342692 -0.027009709 0.07099408
-0.023985319 -0.057776105 -0.11120542 0.062494848 -0.036807522 -0.0019256438 0.31598735 -0.06495682
0.018335743 -0.3711195 -0.3767575 0.03823629 0.061907787 0.89054006 0.028844561 0.04430992
0.051088817 -0.12628004 -0.02802495 -0.02489207 -0.051864244 0.11247392 -0.0356786 -0.11683772
-0.0025698687 -0.016231101 0.036366444 -0.061026815 0.014266201 0.6664889 -0.06125952 0.052397314
-0.06395342 -0.06266008 0.47801605 0.043035816 0.035338666 0.06601856 0.10773122 -0.022627646
0.0053444696 -0.0005367504 -0.057123426 -0.008373543 -0.23847146 0.023225535 0.2930324 -0.07628501
0.030002685 0.0437035 0.05741401 -0.033408694 -0.04835784 -0.14850438 -0.043080214 0.40324903
-0.34922662 0.02597734 -0.15802415 -0.031121826 -0.14357664 -0.057757825 -0.057681687 -0.14096534
0.44286948 -0.038825937 -0.026013 0.0373685 -0.07526157 -0.04121996 -0.17394683 0.17656934
-0.1840732 0.039013695 0.29206923 0.009069268 0.031565025 -0.064245544 -0.071931385 0.015939748
-0.15525855 -0.025804197 0.07086826 0.038033605 -0.052713204 0.04143248 -0.013695026 0.029470751
0.2950665 0.06737945 0.012811297 0.3262122 0.20081289 0.024112627 -0.051993627 -0.014028805
-0.09998775 -0.09430133 0.011666337 0.15839139 0.09286397 -0.123368576 0.013904825 -0.010423005
0.028726537 0.032668248 -0.072542496 0.07330836 0.040074162 -0.0517807 -0.046089593 -0.05946179
0.07876667 0.082813375 -0.09301072 0.035479546 0.009409673 0.10517556 -0.089793816 0.22878224
