model_store/pnet_model_final.pt (torch_old, 29579 bytes, 11 tensors)

pre_layer.0.weight f4 [10, 3, 3, 3]
000000 3a f2 07 bd b0 bf 1c bf 5e a3 7d be 39 ee d1 be
       -0.03318999 -0.6122999 -0.24769351 -0.41002062
000010 fb 5b 0e 3e 85 96 14 3f 12 61 82 be 25 e4 c1 3e
       0.13902275 0.58042175 -0.25464684 0.37869373
000020 fa 19 08 3f 47 78 90 be 72 36 89 be b2 f3 9c 3c
       0.5316464 -0.28216764 -0.2679935 0.019159172
000030 69 36 7d be c1 fe 0c 3d 0f 87 67 3e 51 bb 9c be
       -0.24727787 0.03442264 0.22610115 -0.3061166
000040 c3 f8 4e 3e 4c 9e 2b 3e 3c b6 ff bf ae 7b e9 be
       0.20212083 0.16759604 -1.9977489 -0.45602173
000050 9e 51 14 3f 7a c9 81 bf d6 44 15 3d ce 55 37 3f
       0.5793704 -1.0139611 0.0364426 0.716153
000060 55 f8 32 3f f6 21 58 3f 93 a3 06 3f 7c 17 6b be
       0.69910175 0.8442682 0.52593344 -0.22958177
000070 76 e0 22 be f1 f7 52 3e 6e 6d 14 3e e5 a3 e2 3b
       -0.15905938 0.20602395 0.14494869 0.0069165104
000080 df e5 44 bd 03 8a a3 3e 93 79 27 be 86 46 2b 3d
       -0.048070785 0.31941232 -0.1635497 0.041815303
000090 fd 38 81 3e 46 22 a4 3e 40 51 68 be 4e 42 14 be
       0.2523879 0.320574 -0.22687244 -0.14478418
0000a0 a4 ed 95 bd 72 12 9c be 05 47 16 be 29 00 04 bf
       -0.07320717 -0.30482823 -0.1467553 -0.51562744
0000b0 49 12 b3 be d0 cc 9b 3f 24 00 aa 3f e2 7e a7 3f
       -0.34974888 1.2171879 1.3281293 1.3085597
0000c0 aa 45 06 3e 82 03 b4 3c f9 1a 27 3d 3d 5d b9 bf
       0.13112512 0.021974329 0.040797208 -1.4481579
0000d0 6e 13 98 bf 9d ce 4a bf 0f 36 25 3f 18 05 d8 3d
       -1.188093 -0.79221517 0.6453561 0.105478466
0000e0 14 72 0d bf cc e1 82 3f 35 13 73 3d 1e ec 95 bf
       -0.55252194 1.0225158 0.05934449 -1.1712682
0000f0 b2 16 84 3f fb 20 42 3b 0f e4 25 bf 93 08 a5 3e
       1.0319426 0.0029621709 -0.64801115 0.32233104
000100 0f f5 6b be 7f e3 3d bf 4c ce 39 3f d5 21 dc 3c
       -0.23042701 -0.74175256 0.7258041 0.026871601
000110 be 3b 4e bf c1 d3 07 3f b5 5e 51 3e a6 ae 30 bf
       -0.8055991 0.53057486 0.20446284 -0.6901649
000120 e0 8a b6 3e d6 35 4b 3e 84 35 b8 be 33 6b 20 3f
       0.35652828 0.19844756 -0.3597833 0.62663573
000130 30 b2 0e 3d 77 a8 06 bf 49 6c 6a 3e f4 69 70 be
       0.0348379 -0.52600807 0.2289287 -0.23477918
000140 72 57 b9 be f8 17 02 bf 9b a6 9b 3e 54 4a e9 3c
       -0.36199528 -0.50817823 0.30400547 0.028477825
000150 15 f6 3f bf d4 26 17 3f c7 27 af be cf 7c cc be
       -0.74984866 0.5904362 -0.34210035 -0.3993897
000160 ff 09 67 3f c3 89 e5 3d 6a 03 17 be 24 7a 35 3f
       0.9024963 0.112079166 -0.14747396 0.70889497
000170 77 b4 59 be 86 a9 38 bf ec 29 95 3f 32 51 53 bf
       -0.21260248 -0.7213367 1.1653419 -0.8254577
000180 3e f3 32 bf 5d 7b 44 3f e7 79 1c bf 95 2c c6 bc
       -0.6990241 0.7675074 -0.6112351 -0.02419118
000190 9e f0 23 3f a5 77 06 bf 9c 8f 96 be 8d c4 87 3f
       0.6403903 -0.52526313 -0.2940644 1.0606858
0001a0 8a ba 2f bf 76 6d dd bd 4e 72 25 3f d2 4b 41 bf
       -0.6864401 -0.10811894 0.6462754 -0.7550632
0001b0 ae de a5 be 66 2b be be 31 94 54 be 17 92 c3 3e
       -0.32396454 -0.37142485 -0.20759656 0.38197395
0001c0 be e6 9a 3e a2 04 65 bd 8d f1 c4 3e e6 b0 52 3f
       0.30254167 -0.05591262 0.3846554 0.82301176
0001d0 87 7e 69 3e 99 e2 82 bd b9 d2 45 bf 86 0d 4a bf
       0.22802173 -0.06390876 -0.7727466 -0.78926885
0001e0 12 c2 a1 3e 5d eb ab 3b 62 29 13 bf ac c6 3f 3e
       0.31593376 0.0052465633 -0.5748502 0.18728131
0001f0 d9 6f 81 3e 7c ec 08 3d cf d0 80 bd e8 21 45 bf
       0.25280645 0.033428654 -0.06289827 -0.7700486
000200 75 c5 b2 bf 00 ff b6 3e 2d f0 11 bd 92 81 b0 be
       -1.3966509 0.35741425 -0.03562944 -0.34473854
000210 60 39 27 3f 9d a5 79 3f c5 e8 2e 3f 44 ab 1f 3e
       0.6532192 0.9751833 0.6832393 0.15592676
000220 84 36 c8 3c 69 ff 91 be fa e5 1d bf ae 0d 0f bf
       0.024440058 -0.28515175 -0.6167904 -0.5588025
000230 d5 c8 3b 3f aa 9c 79 bf 51 a9 2d be de 73 0b 40
       0.7335332 -0.97504675 -0.1695912 2.178947
000240 53 69 9f bf 36 73 b4 be 27 4b c8 be 12 2f bb be
       -1.2454017 -0.3524415 -0.39119837 -0.3655935
000250 b3 e5 3a bf ce fa 57 bf 65 6c 11 be 6e 60 22 bf
       -0.73006743 -0.8436707 -0.14201505 -0.6342839
000260 29 81 dc 3d cf 71 05 3f ec 40 50 3f 53 cf a7 be
       0.10766823 0.52126783 0.8134906 -0.32775363
000270 6f 8f 89 3f 2d 6b ac 3f 6a 37 94 bf 90 f0 19 bd
       1.0746897 1.3470207 -1.1579411 -0.037582934
000280 7f 2b e8 be 25 b7 23 c0 5e 85 de 3e 14 02 7e bf
       -0.45345685 -2.5580533 0.43461126 -0.9922192
000290 69 e1 b3 3e 22 a4 48 3e 3f d3 96 3e fa 11 a1 be
       0.35132912 0.19593862 0.29458043 -0.31459028
0002a0 04 62 2b 3f 15 ee fc 3e 31 f6 19 3f 5b a3 9b 3f
       0.66946435 0.49400392 0.60141283 1.2159227
0002b0 4e d1 a9 bf f4 71 85 3f 20 c4 2f bf fa 84 87 bf
       -1.3267 1.0425401 -0.6865864 -1.0587456
0002c0 2c 73 3c bf 3f d9 82 bf 91 92 c0 bf 18 68 87 bf
       -0.7361324 -1.0222548 -1.5044729 -1.0578642
0002d0 ae f1 fa 3e f1 45 7b bf 33 ac 14 3f 1b 93 12 3f
       0.49012512 -0.981536 0.58075255 0.57255715
0002e0 36 1c 25 3f 27 b3 44 3f cf 06 ad 3c db ad 01 3f
       0.6449617 0.76835865 0.02112141 0.5065591
0002f0 90 cc a0 3e 49 fb bf be 9f 9b 1a be 29 d7 ca be
       0.3140607 -0.37496403 -0.15098427 -0.3961728
000300 35 d5 8f 3e ea ab eb 3e 1f 2a 14 be 45 c6 0d bf
       0.28092352 0.46029598 -0.14469193 -0.5538066
000310 72 46 6c bf d4 cf 45 bf 0c bb 76 3d d3 9a ad be
       -0.9229499 -0.77270246 0.060236976 -0.33907184
000320 1b c8 ca 3e 32 78 84 3f c1 a2 b5 3f fa a1 72 3f
       0.39605793 1.0349181 1.4190294 0.94778407
000330 36 77 8a bd aa da f1 be a7 aa 58 3e 0f f2 48 bf
       -0.06761019 -0.4723714 0.21158849 -0.7849435
000340 a8 d0 8a bf 85 7b 18 bf b1 81 04 3f 17 e9 66 3f
       -1.0844927 -0.59563476 0.51760393 0.90199417
000350 4a fc 59 3e b1 0c be bd 61 24 67 3d 92 43 9f 3c
       0.21287647 -0.092797644 0.056431178 0.0194414
000360 8e c4 a9 be 40 82 42 3f 36 55 ca be 12 c3 fe bd
       -0.33157772 0.75979996 -0.39518136 -0.124395505
000370 ab e6 67 3f 5e b7 89 bd a4 b7 8a bf 53 ca 53 3e
       0.90586346 -0.06724428 -1.0837293 0.2068265
000380 6d bc 6b bf 88 fc 3b 3f 13 e7 a8 3f a3 be 8c 3f
       -0.9208439 0.7343221 1.3195518 1.0995678
000390 96 a8 54 3f 5c 5b ab 3f 95 45 76 3f f0 f6 04 3f
       0.8306974 1.3387256 0.96199924 0.51939297
0003a0 ba 54 6a 3f 1e b9 56 3f 74 3f 82 be bd b7 fa bf
       0.9153553 0.83876216 -0.25439036 -1.9587322
0003b0 7d db 0e bf 11 d7 13 bf 14 68 09 c0 ab 17 3a bf
       -0.5580366 -0.5775004 -2.1469774 -0.72692364
0003c0 8b 8b 2a 3f 90 6f 8c bf 11 35 67 3e d4 8d b4 bf
       0.66619176 -1.0971546 0.22578837 -1.4105783
0003d0 a5 50 f4 be 02 77 dc 3e 99 46 d7 bf d1 ea 0a bf
       -0.47717777 0.43059546 -1.681842 -0.5426455
0003e0 84 4d d1 3d 09 0c 66 3f a3 3d 8e bf 98 4a 29 be
       0.10219863 0.89862114 -1.111256 -0.16532362
0003f0 79 77 97 be b2 6d 80 3f 1f 69 a5 3e 7a 01 34 bf
       -0.29583338 1.0033476 0.32306764 -0.70314753

pre_layer.0.bias f4 [10]
000000 c4 54 4a bc 54 66 29 bd 1f 70 a7 ba af 5d 5b 3d
       -0.012349311 -0.041357353 -0.0012774504 0.05355614
000010 5d 4b c4 3c 56 eb ef 3e 20 4d 3a be c4 66 f7 bc
       0.023961717 0.46859235 -0.18193483 -0.03020037
000020 52 77 9e 3e 4a 48 fb 3d
       0.3095041 0.122696474

pre_layer.3.weight f4 [16, 10, 3, 3]
000000 aa 12 79 c0 f1 19 21 be 87 67 3a be 8e 3b a2 bd
       -3.8917642 -0.15732552 -0.18203555 -0.079215154
000010 c7 55 01 be 65 1e 56 be 0c c0 76 3d 50 0c e8 be
       -0.12630378 -0.20910032 0.060241744 -0.45321894
000020 e9 4b 45 bd 5b 13 a3 bf e2 fc 76 bf 1e 5c 34 bf
       -0.048168097 -1.2740282 -0.9647962 -0.7045306
000030 f3 8a 89 be 53 73 14 3d 80 d3 67 bd 30 f0 8d 3e
       -0.26863822 0.036242794 -0.056598186 0.2772231
000040 4a a6 a2 bd f3 38 9c bc d4 3b d4 bf 0d b0 8d bd
       -0.07941873 -0.019070124 -1.6580758 -0.06918345
000050 c0 1c c9 be 08 ff 76 3e 48 da 9c bd 31 60 8b 3d
       -0.39279747 0.24120724 -0.07658821 0.068054564
000060 e8 f3 38 3d 35 10 60 bd 88 0d 13 3c 21 56 27 bf
       0.045154482 -0.054702956 0.008975394 -0.653658
000070 38 35 9e bd cf 16 9a 3d f9 06 68 3f 1b 01 fb 3c
       -0.077249944 0.07523882 0.9063564 0.030640176
000080 72 8e 5e 3e 49 d4 4b 3e fb 06 05 3e 35 51 79 bc
       0.21734026 0.19905199 0.12990944 -0.015217115
000090 81 86 e7 be fd e6 94 bf f4 9a 72 bd 5c 7a 34 bf
       -0.45219806 -1.1632992 -0.059229806 -0.70499206
0000a0 38 aa 42 be d4 93 72 3e e4 da 4f be 32 b8 41 3d
       -0.19010246 0.23689204 -0.20298344 0.047294803
0000b0 81 b5 ca bd 3d 32 7c be 44 46 ec 3e 93 69 63 3f
       -0.098979004 -0.2462854 0.46147358 0.8883297
0000c0 c3 ab dd 3e 81 40 a2 3e 63 7b 00 3f 68 6f 88 bf
       0.43295106 0.31689838 0.50188273 -1.0658998
0000d0 6a af 4e bd 90 e6 d7 be 84 b2 da bf 5c b6 0d 3f
       -0.050460257 -0.42168093 -1.7085729 0.55356383
0000e0 8c c9 5a 39 c1 31 02 3e ea 0d 9e 3f 69 68 cd be
       0.00020865182 0.12714292 1.2347996 -0.4011872
0000f0 16 24 02 bf ae 4c 2e 3b e1 3c 1c 3f 97 15 8a 3d
       -0.5083631 0.0026595998 0.61030394 0.06742399
000100 27 05 c2 be 13 3b e9 3e 1b 61 f1 bd 24 44 da bd
       -0.37894556 0.45552883 -0.117860995 -0.10657528
000110 29 a3 8a 3e f1 d6 49 3e cf 32 51 3e d7 b8 ed 3c
       0.27077606 0.197109 0.20429538 0.029018803
000120 33 6f a4 bf fb cc 10 bf 81 a1 bb 3e 86 f6 a9 3e
       -1.2846435 -0.56562775 0.36646655 0.33195895
000130 6d 7b a7 bd 86 84 6d 3e ef 1c 40 3f bb d8 5f 3f
       -0.081778385 0.23195085 0.7504415 0.8744008
000140 0a 3a 2f be 83 f2 fd bf c5 d0 ec 3e 50 85 cc 3e
       -0.17111984 -1.9839634 0.4625303 0.3994546
000150 0b 0b de bd b8 51 ad bc 63 81 d0 be be 9a 9c be
       -0.1084195 -0.02115713 -0.40723714 -0.3058681
000160 fe 7a 11 be ec 03 62 3e c0 c3 01 bf 2f f5 15 bf
       -0.14207074 0.22071809 -0.50689316 -0.58577245
000170 1c f9 92 be 8d 32 cd 3d 47 c1 fe bc 04 64 4e 3e
       -0.2870568 0.100194074 -0.031098021 0.2015534
000180 ab ec 96 bd bb d4 9b 3e 40 45 a1 3f fd fa 58 3f
       -0.073693596 0.30435738 1.2599258 0.8475798
000190 41 a9 63 bf 3c 6f c1 bf 94 c6 db 3e e3 0c 3e bc
       -0.88930136 -1.5112071 0.4292494 -0.011599752
0001a0 b7 e0 fd bf 64 27 7b be 82 16 3e 3f 6d bf 3a 3e
       -1.9834203 -0.24526745 0.74253094 0.18237086
0001b0 ec 62 26 be 99 24 56 3f 76 11 86 3f 9c d4 3f 3e
       -0.16248673 0.83649594 1.0474079 0.18733448
0001c0 2d 6d 63 3e e3 0b 03 3f 8b 34 46 be 4c 2a 80 3d
       0.22209616 0.5119001 -0.19355981 0.062580675
0001d0 42 b9 30 3f d3 85 e0 bd 1f 55 86 bc 27 75 0f 3e
       0.6903268 -0.10963025 -0.01639801 0.14009534
0001e0 df 3d 1d 3e 5c d6 a0 3e 62 72 3a 3e 4d ac f6 be
       0.15355633 0.31413543 0.18207696 -0.4817833
0001f0 d3 d9 c7 be 2b d0 56 be 2e b7 4a 3f e0 cc 34 be
       -0.39033374 -0.20977847 0.7918576 -0.17656279
000200 79 ec 2d c0 10 a6 04 3d 0a a6 e7 3b cd d1 07 c0
       -2.7175581 0.032384932 0.007069354 -2.1221802
000210 b6 97 19 3f d2 80 d7 3d da 60 25 bf 1f 24 0f 3f
       0.5999712 0.105226174 -0.6460091 0.5591449
000220 e1 81 cd be bc a0 d4 bf b2 7b 97 bd 51 be 0e bd
       -0.40138152 -1.6611552 -0.0739664 -0.03484947
000230 dd 33 b0 be d6 f1 af 3e 59 9e ab 3f b7 ce 75 3f
       -0.3441457 0.34364194 1.3407699 0.96018547
000240 8f 6f 5c 3f 77 b3 bf 3c ee 87 50 3e e1 29 cb be
       0.86107725 0.023401005 0.20364353 -0.3968039
000250 fa ff b0 3e 01 a7 ce be 82 42 a7 be 72 cd ad 3e
       0.34570295 -0.4036179 -0.3266793 0.33945805
000260 51 67 5f be 92 17 8d 3f 17 66 43 be 92 e9 d8 be
       -0.21816756 1.1022818 -0.19081913 -0.423657
000270 6c 1d 51 3f 2b 09 b0 3d 66 f1 d8 bf d2 ba a8 bc
       0.8168552 0.08595499 -1.6948669 -0.020596895
000280 2e 93 09 3f a6 e7 9c be 01 55 28 bf 68 29 c0 be
       0.53740203 -0.30645484 -0.65754706 -0.3753159
000290 33 e8 2e c0 32 c6 9e 3f b2 7d 8f 3f 54 d7 04 3f
       -2.7329223 1.2404234 1.1210234 0.51891065
0002a0 37 19 e5 be eb ae c3 3e 18 aa 99 3f c6 d4 a1 3f
       -0.447458 0.3821939 1.2005033 1.2643058
0002b0 12 9e 4f 3f 58 27 dd 3e 97 b8 bc be 57 a2 e0 3e
       0.8110057 0.4319408 -0.3685958 0.43873855
0002c0 2f a3 bc be da 89 4f 3e c2 84 aa bf d9 6a c4 bf
       -0.3684325 0.2026743 -1.3321764 -1.5345107
0002d0 37 d2 32 bf 62 75 e7 3e 88 8e 8f be 28 d8 85 3e
       -0.6985201 0.45206743 -0.2803843 0.26141477
0002e0 6e b6 0c be ba b0 25 bf 35 30 19 3f a0 55 42 bd
       -0.13741466 -0.6472279 0.59839183 -0.04744494
0002f0 f1 05 69 bf 2b 60 85 be f4 a9 27 bf 94 54 fa be
       -0.9102469 -0.26049933 -0.654937 -0.48892653
000300 36 39 71 3d 2f 9e 0d bf 5b c9 17 3b e7 8a a9 be
       0.05889245 -0.55319494 0.0023160789 -0.33113787
000310 a3 73 97 bd 4a c5 4b be 5a c9 67 3e 22 c6 85 3e
       -0.07395103 -0.19899479 0.22635403 0.26127726
000320 a7 b0 99 be 14 0e 60 bd c9 dc d6 3e d1 01 9a be
       -0.30017588 -0.054700926 0.4196532 -0.3007951
000330 e3 7c a7 3d cf 93 6b 3e de a7 77 be 69 fa b4 3e
       0.08178117 0.23005603 -0.2418513 0.35347298
000340 d6 9d 0f 3f 23 14 2d 3e 06 0c db 3c eb 68 16 3e
       0.56100214 0.16902213 0.026739132 0.1468846
000350 8e 84 a3 3d df f2 17 3f b5 64 56 3f 3d d8 fb 3e
       0.07984267 0.59354967 0.83747417 0.49188414
000360 c6 bd 87 be e4 ae 01 be 45 c8 45 bc 09 47 0b be
       -0.26511973 -0.12664372 -0.012071674 -0.13601317
000370 fe b7 3a bd 42 e6 db 3e 61 3a e6 be 6d 72 0f 3d
       -0.045585625 0.4294911 -0.44966415 0.035021234
000380 8b 70 28 3f b6 d3 89 be 72 f2 23 be 02 b2 24 be
       0.65796727 -0.26919335 -0.16010454 -0.1608353
000390 ce 4c d0 3d 13 90 3f 3f 78 71 f3 3d 1e 38 1c 3f
       0.10170899 0.74829215 0.11886877 0.6102313
0003a0 33 07 fb 3e f6 8d 62 bf 65 60 00 3f f0 29 7c 3f
       0.4902893 -0.88497865 0.50147086 0.9850149
0003b0 27 4d e3 3e 17 13 77 3f 89 05 a1 3f 25 96 6b 3f
       0.443948 0.96513504 1.2579814 0.9202598
0003c0 5d cd 50 3f 41 ed a2 3f 0c 3f 17 3f 35 dd 88 3e
       0.8156336 1.2728654 0.59080577 0.26731268
0003d0 e2 f7 85 bd bc 33 fc 3e 30 43 ec 3e 29 64 8f 3e
       -0.065414205 0.4925822 0.4614501 0.28006104
0003e0 8d 71 61 3f 5a 3d c9 3d 1a 44 d2 3e 97 24 1b 3f
       0.8806389 0.09826155 0.41067582 0.60602707
0003f0 11 be a3 3e ad 24 85 3f 64 b9 eb be 9e 69 01 40
       0.31980947 1.0401818 -0.4603988 2.0220714

pre_layer.3.bias f4 [16]
000000 51 b2 47 40 8a 3a 84 3f 20 ed 25 bf 12 5c 15 3f
       3.1202586 1.0330365 -0.6481495 0.58343613
000010 b8 99 4a 3f f7 06 0d c0 59 88 30 3f 0d 22 a4 3f
       0.79140806 -2.20355 0.6895805 1.2822891
000020 b4 23 d6 3f 10 7a e3 bf 87 43 a7 3d 54 58 23 c0
       1.6729646 -1.7771626 0.08167177 -2.5522661
000030 d3 03 8c 3f a6 c9 43 3e 26 1d 11 3f f3 98 79 be
       1.0938667 0.19119892 0.566851 -0.24374752

pre_layer.5.weight f4 [32, 16, 3, 3]
000000 6f 16 68 be 0c f9 1d be d4 50 f0 bf 3e 62 35 bf
       -0.22664808 -0.15427035 -1.8774667 -0.7085303
000010 32 65 4d bf e5 82 8f 3f 41 75 35 3e 05 04 f4 be
       -0.80232537 1.1211821 0.1772051 -0.47659317
000020 18 73 20 3f 1d b7 22 c0 c3 2b 13 c0 f9 b0 38 c0
       0.6267562 -2.5424263 -2.299546 -2.8858016
000030 47 a3 1a 3f 1b 87 f2 3f aa ed 50 bf ba 2b 85 3e
       0.6040539 1.8947481 -0.81612647 0.26009923
000040 cd db 4a be da d6 62 3f d9 36 0f c0 02 e0 84 3e
       -0.1981041 0.8860909 -2.2377226 0.25952154
000050 2e 13 ab bf e1 9d c5 be 39 3e d5 3f d0 b2 b6 3d
       -1.3365228 -0.38597015 1.6659614 0.089208245
000060 e1 a1 ac be dd 29 7a be ad bd 25 bf 94 27 be be
       -0.33717254 -0.24430032 -0.6474255 -0.3713957
000070 75 71 ca 3f e0 fa 34 3f 53 0d 6f bf 28 6d e4 3e
       1.5815874 0.70695305 -0.93379706 0.4461453
000080 33 f5 55 3f ff 0a 11 be 9f ff 46 3f 5f 75 84 3f
       0.8357727 -0.14164351 0.77733797 1.0348319
000090 a5 02 76 bf a4 3c a8 3f e8 4a 0d 3f c2 e5 e3 3e
       -0.96097785 1.3143506 0.5519242 0.4451123
0000a0 b2 3d 8a be e2 1f 8c bf 5c 21 24 be 19 2d ca be
       -0.27000195 -1.094723 -0.1602835 -0.39487532
0000b0 15 f9 37 be e5 8d eb 3e 3d e2 95 3f 24 e3 a3 bf
       -0.17966111 0.46006694 1.1709667 -1.2803693
0000c0 f0 2b 66 bf 28 d0 84 bf 19 b0 09 3f 22 dd db bd
       -0.89910793 -1.0376024 0.5378433 -0.10735537
0000d0 10 e3 e4 3e 37 93 e7 3f dc 71 1a 3c 26 3d b1 bf
       0.44704485 1.8091801 0.00942656 -1.3846786
0000e0 e1 c0 21 c0 7d 8e 2a be dd cd a6 3e 9d 79 f5 3e
       -2.5273974 -0.16655917 0.32578936 0.47944346
0000f0 63 13 16 bf a8 03 a2 3f 07 45 64 bf 82 a3 16 3f
       -0.5862333 1.2657366 -0.8916783 0.58843243
000100 ac b0 76 3f 74 c8 14 c0 81 51 9f bf 7f e6 de 3f
       0.9636333 -2.3247347 -1.2446748 1.7414092
000110 10 29 a2 be 73 9d 67 bf b0 3c af 3f 34 47 36 be
       -0.31671953 -0.90474623 1.3690395 -0.178006
000120 61 fe 91 3e 6c f9 f3 3f db 82 dd be 8b ee d2 3e
       0.28514388 1.9060493 -0.43263897 0.4119762
000130 77 0f da be 6c 17 8f bd 84 54 49 bd 93 87 3b bf
       -0.42589924 -0.06986889 -0.049152866 -0.73253745
000140 5f b8 95 3e ef bb 03 c0 c4 8f 1d c0 5e 81 df bf
       0.29242226 -2.0583456 -2.4618998 -1.7461355
000150 22 bc d6 be f5 5a 75 3f bc f9 0c bf 88 b2 28 bf
       -0.4194041 0.95841914 -0.55068564 -0.6589742
000160 bb 54 f3 3e ba 22 b9 3e 2f c0 13 bf 17 ca ce bf
       0.47525582 0.36159307 -0.57715124 -1.6155423
000170 be 93 ce bf 5e 80 89 3e d9 18 9c 3f f5 c3 77 3f
       -1.6138837 0.2685575 1.2195083 0.9678338
000180 67 21 cd 3f 73 7e 26 3d f4 27 ae be c2 13 95 bf
       1.6025819 0.040647935 -0.34014857 -1.1646655
000190 d4 ed 4b bf a3 c0 f6 3d 17 b4 ff bf 33 89 d4 bd
       -0.7965977 0.12048461 -1.9976834 -0.10377731
0001a0 52 94 89 bf 56 e0 a7 be a0 13 c5 bf 63 19 0b bf
       -1.0748389 -0.32788342 -1.5396614 -0.5433561
0001b0 13 b6 9e be cf d5 12 be 5f f6 47 3e 9f ae 90 3f
       -0.30998287 -0.14339374 0.19527577 1.130329
0001c0 28 2b 09 bf 56 b3 43 bf c1 0a 15 3f cf 99 e6 be
       -0.53581476 -0.7644552 0.58219534 -0.45039222
0001d0 8f c2 9a bf ec 4d 40 3e 2f 41 18 be 84 28 e2 be
       -1.2090625 0.18779725 -0.14868616 -0.44171536
0001e0 6f eb b5 3e cc df c0 3e 78 ec 36 3f 92 49 ee be
       0.35531184 0.37670743 0.7145457 -0.46540505
0001f0 5e a1 9c 3e 88 38 7d bf d0 19 35 bf 14 d6 bf bf
       0.30591863 -0.98914385 -0.7074251 -1.4987206
000200 53 35 aa bf 31 e5 bf 3e 86 51 4e 3f 5e b1 42 bf
       -1.3297523 0.37479547 0.80593145 -0.7605189
000210 c1 db 2e be 18 03 05 3f 4f a8 a7 bf 0c 67 1e bf
       -0.17076017 0.51957846 -1.3098239 -0.6187599
000220 35 e2 21 bf 1b fc 15 bf 6a 8c 0a c0 49 09 9f 3e
       -0.6323579 -0.5858781 -2.1648202 0.31061772
000230 02 8e 59 be ec 3c 86 be 8d 24 41 3e 0f e3 2e bf
       -0.21245578 -0.26218355 0.188616 -0.68315214
000240 8b 28 b0 bf dc 00 62 be 7f 07 18 bf e1 aa 19 3f
       -1.3762373 -0.2207064 -0.5938644 0.60026366
000250 ad e1 2c 3e 11 a1 00 3e 03 4c c2 bd c5 13 78 3e
       0.16882963 0.12561442 -0.09487154 0.24226291
000260 3c 09 76 3d 41 40 fb be 88 ab f9 be f4 02 24 bf
       0.0600674 -0.4907246 -0.4876368 -0.64067006
000270 68 2a 4f 3f 23 f5 69 bf d7 d4 17 bf c6 02 7e bd
       0.8092408 -0.91389674 -0.5930914 -0.062014364
000280 85 61 6c be f1 ce 56 bf f1 5d 6b 3f 68 62 69 be
       -0.23084076 -0.8390952 0.9194022 -0.22791445
000290 78 f3 90 3e 96 6b 87 bf e2 99 3b c0 db 30 b1 bf
       0.28310752 -1.0579708 -2.9312673 -1.3843035
0002a0 69 67 5f 3f fc a8 51 3e 89 fb c2 3f 00 fb 92 be
       0.87267166 0.20474619 1.5233012 -0.28707123
0002b0 54 90 58 3e f0 76 87 bf c1 11 d9 3e b8 e4 12 3f
       0.21148807 -1.0583172 0.42396358 0.5738025
0002c0 8b 73 27 3e 1f 45 da 3d 98 a9 ab be 12 cb d5 bd
       0.1635267 0.10657715 -0.33527827 -0.10439123
0002d0 97 5f f6 3e 7e f9 69 3e 7b 46 3a bc 13 97 aa 3e
       0.48119804 0.2284908 -0.011369343 0.33318385
0002e0 1d f5 d9 bf ba 4b 0b bf 33 c4 3c 3f d7 07 08 3e
       -1.7027928 -0.54412425 0.73736876 0.1328424
0002f0 5f 9e 25 3f db 81 a0 3f 03 b4 99 bf c4 d1 af bf
       0.6469478 1.2539629 -1.200806 -1.373589
000300 c0 8b c6 3f 52 23 b2 3f 04 ae 7b bf e0 75 b7 be
       1.5511398 1.3917029 -0.983124 -0.3583212
000310 fe 24 c6 bf f3 77 2f bf ac 9a a3 3f da 32 83 3f
       -1.5480039 -0.68542403 1.2781577 1.0249894
000320 b9 0f b5 3e 14 11 d8 bf 22 80 cc bf b9 30 45 bf
       0.35363558 -1.6880212 -1.5976603 -0.7702747
000330 cd bb a4 3e ba 4f ad 3e 08 a0 15 bf d3 e2 8a 3f
       0.3217453 0.3384989 -0.58447313 1.0850471
000340 53 a5 07 be 21 f3 df 3e 8b e7 26 be b1 96 e1 be
       -0.1324666 0.4374018 -0.16299264 -0.4406028
000350 17 7c 44 bf a1 96 8a 3f fb f0 b7 bf df 88 5c 3e
       -0.76751846 1.0827218 -1.4370416 0.21536587
000360 85 c3 3c 3f a5 dc 6d bf b3 4e 9b bf 2c 1a 95 be
       0.7373584 -0.929148 -1.2133392 -0.2912153
000370 36 8a 1e bf 89 e8 a0 3f 0c 3f 1b 3f 3c df 90 3e
       -0.61929643 1.2570964 0.60643077 0.28295314
000380 5f 91 d4 3e ab db 1b be b8 e9 c1 bf 38 d3 45 3e
       0.4151716 -0.15220515 -1.514945 0.19318855
000390 6c 70 86 bd 49 d4 b0 bf 47 0b 6b bf cd 09 29 3f
       -0.065644115 -1.3814784 -0.9181408 0.6603058
0003a0 1c be 7e 3d bd f1 90 be 21 c9 4d 3f 97 36 39 3f
       0.06219302 -0.28309432 0.80385023 0.7234892
0003b0 60 2e d8 3d f8 b0 77 bd d8 c8 92 bf 91 fc 9c bf
       0.1055572 -0.060471505 -1.1467543 -1.2264577
0003c0 3b f2 93 bf 5c 6f 98 bf 87 9f c2 3d bb ab 4f bf
       -1.1558298 -1.1908984 0.09503084 -0.81121415
0003d0 ae 2c 8b be 3d 39 06 3c 17 bf c3 bd 59 19 a5 bf
       -0.27182525 0.008192358 -0.09557932 -1.289836
0003e0 ce 9f 40 bf 9d a2 b5 bf dd 89 57 bf f7 b9 aa bf
       -0.7524384 -1.4190251 -0.8419474 -1.3338002
0003f0 3e 47 b6 bf a3 c0 db 3f 2f b3 55 bf cf 58 59 bf
       -1.4240491 1.7168163 -0.8347654 -0.84901136

pre_layer.5.bias f4 [32]
000000 34 32 1c 40 be f6 f2 3f 82 b6 93 40 11 63 cc 40
       2.4405642 1.898155 4.616029 6.387093
000010 b8 78 71 c0 7b 10 b7 bf b9 da 00 c1 82 be 8d bf
       -3.772993 -1.4301904 -8.053399 -1.1073763
000020 e2 4e 83 40 f8 fe 94 40 ce c1 5e bf 48 6c 45 bf
       4.1033792 4.656124 -0.8701447 -0.7711835
000030 0c e0 38 bf 92 a0 58 40 bd 94 ae 40 32 bd 84 40
       -0.7221687 3.3848004 5.4556565 4.148095
000040 47 47 83 3f e2 4d ac 40 d4 aa a5 40 38 a1 1b 3f
       1.0256127 5.384507 5.177103 0.60792875
000050 0c 66 e8 3f 76 32 fc bf 7c 06 6a 40 13 88 50 40
       1.8156142 -1.97029 3.6566458 3.2583053
000060 a7 0c 8c 40 4c c6 8a 3f ff 00 32 40 39 61 9f 40
       4.3765445 1.0841765 2.7813108 4.980618
000070 92 fa 6e 3d 35 d7 4a 40 21 d5 25 40 f5 99 f4 3f
       0.05834443 3.1693852 2.5911334 1.9109484

conv4_1.weight f4 [1, 32, 1, 1]
000000 95 9c 9f 3d 56 e9 93 3d 9f eb d3 3d a0 1a ad 3d
       0.077935375 0.0722224 0.103476755 0.08452344
000010 f3 10 b6 bd c6 9a a3 bd 86 8d 1e 3e 81 8e b6 bd
       -0.088899516 -0.07988505 0.15483674 -0.08913899
000020 bb 5f bf 3d 0b cd a1 3d a9 69 c2 bd 9d 18 ec bd
       0.09344431 0.07900437 -0.09492809 -0.11528132
000030 b5 16 9b bd b9 48 60 bd e4 fd b0 3d ca 36 a7 3d
       -0.075726904 -0.054756854 0.08642176 0.08164747
000040 5f 87 9b bd 8e 25 e0 3d 60 5a b0 3d f5 5b 76 bd
       -0.07594179 0.10944663 0.08610988 -0.06014629
000050 a3 16 57 bc 13 8b 77 bd 5d 69 b2 3d a4 d3 a6 bd
       -0.013127956 -0.060435366 0.08711503 -0.08145836
000060 60 35 fa bd 12 85 91 bd 52 d9 a6 3d 23 fc 9e 3d
       -0.12217212 -0.07105459 0.08146919 0.07762935
000070 2a 44 97 3d 0c 86 dd 3d 4a 22 c3 3d 02 8a 16 3c
       0.07386048 0.10816583 0.095280245 0.009188177

conv4_2.weight f4 [4, 32, 1, 1]
000000 93 ea b4 b9 e8 9f 6d b9 d7 a6 c1 39 7c 47 81 3a
       -0.00034507047 -0.00022661651 0.00036936134 0.0009863223
000010 47 1c 40 bb 11 d1 bb ba 0e 93 1b be 3c 66 20 bb
       -0.002931373 -0.0014329274 -0.15192816 -0.0024475
000020 40 c5 8d ba bf 54 b5 b9 b5 4e 2c b8 f2 4d a9 3a
       -0.0010816231 -0.0003458615 -4.1081297e-05 0.0012916906
000030 07 20 66 3a d0 af 92 ba 23 45 37 3a b4 cb 0c 3a
       0.0008778576 -0.0011191312 0.0006991198 0.00053709303
000040 6e 67 6e ba ac 77 24 3a b0 c3 06 b9 d8 18 f1 b9
       -0.0009094392 0.0006273936 -0.00012852135 -0.00045985612
000050 43 0b 45 bc 38 3c 49 ba 1e 1f 00 b9 5c aa bf ba
       -0.012026611 -0.0007676515 -0.00012218623 -0.0014622915
000060 47 bb 1e bb 13 bd 27 ba 1a a4 7e ba 20 15 04 3b
       -0.0024220513 -0.00063987187 -0.0009713784 0.0020154193
000070 11 b5 be b9 5f 2c 50 ba 75 59 f4 39 2f c2 8c 3d
       -0.0003637453 -0.0007941182 0.00046605957 0.06872975
000080 e1 47 39 bb f1 a9 e8 3a 1b f9 d2 b9 f4 5a e4 39
       -0.0028271603 0.0017750842 -0.0004023992 0.00043555314
000090 8f fa 11 bb 2d d8 83 ba 58 09 73 3d ed 3f 36 bb
       -0.0022274589 -0.0010058932 0.059335083 -0.0027809099
0000a0 65 60 68 ba cd d0 57 3a 62 6b 3f bb 2a 43 eb 3a
       -0.00088644616 0.0008232713 -0.0029208292 0.0017949094
0000b0 49 40 eb ba d1 87 51 39 50 04 0e 3a 1c cc 99 3a
       -0.0017948236 0.00019982389 0.0005417513 0.0011733803
0000c0 2a 2f bc 3a af 5b 51 3b 68 63 a2 38 1a c0 43 38
       0.0014357318 0.0031945517 7.743278e-05 4.667053e-05
0000d0 2c 6c 5a bd c7 63 4c ba 6e 09 83 39 e9 64 55 bb
       -0.053325817 -0.00077968504 0.00024993293 -0.0032561368
0000e0 50 dc e1 b9 9f 09 5b b8 56 49 12 bb 2c f8 de 3a
       -0.0004307949 -5.222263e-05 -0.0022321544 0.0017011217
0000f0 80 99 54 3a 6a 08 c7 ba 72 cf 7c b9 c2 05 0f 3d
       0.00081100315 -0.0015185003 -0.00024109872 0.0349176
000100 d3 25 0b 3b f8 3f 1a 3a fc 21 31 3a b3 94 0f 39
       0.0021232262 0.0005884166 0.0006757078 0.00013692938
000110 fc 16 02 b9 13 fc 03 3b 80 23 85 be 37 d6 f8 3a
       -0.00012406328 0.0020139262 -0.26003647 0.001898474
000120 ab 09 79 38 26 e6 08 ba e8 50 8e 3b e4 de f8 b9
       5.937523e-05 -0.0005222283 0.004343141 -0.00047468313
000130 93 80 fd 38 2a 82 ff b9 86 9e 95 ba a2 c3 e3 ba
       0.00012087929 -0.0004873437 -0.0011415042 -0.0017377029
000140 a5 a0 a4 3a 9b 28 ee b9 a5 57 32 ba 60 9c 15 3a
       0.0012560083 -0.0004542515 -0.0006803221 0.00057072006
000150 23 1e ef 3b 05 f9 89 3a da 1d 23 b8 f5 a6 03 3b
       0.0072972937 0.0010526484 -3.889003e-05 0.0020088528
000160 28 51 bd 3a 40 cd c4 3a 70 88 28 3a 5e 1a 0b ba
       0.0014443742 0.0015014783 0.0006429022 -0.0005306358
000170 93 2d 15 3b 8a 12 42 3a 3d 41 46 3a fc 5d 09 bc
       0.002276276 0.0007403275 0.0007562822 -0.008384224
000180 1b 98 30 37 52 c0 ac ba 59 f8 bf 38 52 c4 21 ba
       1.0525832e-05 -0.0013179875 9.153848e-05 -0.00061709166
000190 fc b7 16 3b 08 1b d2 b9 7f f7 ac bd ad a9 80 3b
       0.0022997847 -0.0004007446 -0.08445644 0.003926477
0001a0 1f 59 9e 39 f2 2c a3 b9 9d 25 43 3b f0 7f 83 3a
       0.0003020251 -0.0003112327 0.0029777058 0.0010032635
0001b0 82 bf cb 3a fd 17 3c 39 26 a7 74 ba be 42 db ba
       0.0015544745 0.00017938013 -0.00093327684 -0.0016728265
0001c0 41 b1 0c 3a a3 72 0d 3b e2 df 88 b9 80 24 69 3a
       0.0005366989 0.0021583221 -0.00026106747 0.00088936836
0001d0 b8 06 0a bd aa e9 a1 b8 b9 e1 09 3a 73 bc 84 3b
       -0.033697814 -7.7206016e-05 0.00052597706 0.004050785
0001e0 7b 4a 45 3b 99 66 f6 3a 8d 1d dc 3a 34 d0 d6 ba
       0.0030104208 0.0018798887 0.0016793475 -0.0016388954
0001f0 4f 82 ae 3b 25 6e ff 38 f4 b7 28 ba 6b 5d 4c bd
       0.0053255926 0.000121798636 -0.00064361026 -0.049893778

conv4_2.bias f4 [4]
000000 97 e2 78 bb b3 29 c1 bd f4 c6 ad 3d be 06 89 3e
       -0.0037976855 -0.094317816 0.08485213 0.26762956

conv4_3.weight f4 [10, 32, 1, 1]
000000 46 be 72 be aa 8b 40 3e d6 f9 0a 3e d8 d5 8c bd
       -0.23705396 0.18803278 0.13571867 -0.06876725
000010 22 cf 9e be 2e f4 a0 be eb 75 ba 3e 46 a8 7c 3e
       -0.31017405 -0.31436294 0.3641809 0.24673566
000020 e0 48 62 3c 12 84 06 be 16 cc 0a 3e 79 d7 11 be
       0.01381132 -0.13136318 0.13554415 -0.14242353
000030 38 86 20 3d 89 c9 a0 3e 6b 13 a8 3e 98 d7 c7 3d
       0.0391905 0.3140376 0.32827315 0.09757918
000040 46 41 a1 be 04 a5 d8 3d d2 49 b8 be f9 7f be 3e
       -0.31495112 0.10578349 -0.3599382 0.3720701
000050 9d c5 92 3e 0d a5 9b be b0 ad 7e 3d 33 8d 91 3e
       0.28666392 -0.3039936 0.06217736 0.2842804
000060 60 72 70 bc de 54 0d 3e 7f e2 4e be 4b 20 89 be
       -0.014675707 0.13801906 -0.20203589 -0.2678245
000070 38 be e4 bd 1a 88 97 be 40 f0 95 3b be 8e 77 be
       -0.11169094 -0.29596025 0.004575759 -0.24175546
000080 14 53 df 3d 92 8f 4c 3e 88 26 89 be 45 c1 9f 3e
       0.10904518 0.19976643 -0.2678721 0.3120214
000090 e2 91 79 3e 54 40 a5 be 6a b6 38 be 1a a9 02 3e
       0.24372056 -0.3227564 -0.18038335 0.1275982
0000a0 d8 1f 86 be 30 7c 4e bd 30 47 b9 bd de 35 8a be
       -0.2619617 -0.050411403 -0.09046781 -0.26994222
0000b0 77 7c 8c be 10 05 c1 3d e6 2b 00 be 06 75 6f 3e
       -0.2743871 0.09424794 -0.12516746 0.23384485
0000c0 f0 78 cd 3d b2 e3 06 3e fd 8c 0d be c0 b3 82 bc
       0.100328326 0.13172796 -0.13823314 -0.015954852
0000d0 e9 ad 98 3e 88 f2 02 be f0 cb a2 3c 45 27 80 3e
       0.29820183 -0.12787831 0.019872636 0.2502996
0000e0 a2 fc 0f 3e ef 98 be be 20 87 a9 bd 22 d3 1b 3e
       0.14061216 -0.37226054 -0.08277726 0.1521726
0000f0 f0 02 d4 3d 8e da 2a 3e f8 13 cb 3d f3 23 8f 3e
       0.10352123 0.16684934 0.09915918 0.27957115
000100 80 9c 56 bc 98 67 a3 3d 90 a2 e9 3d d4 b3 3b be
       -0.013098836 0.07978743 0.114079595 -0.18330318
000110 bd ec 80 3e 70 b9 e2 bc a0 27 92 3d 80 c8 c6 bb
       0.25180617 -0.027676314 0.07136464 -0.006066382
000120 ca eb 75 3e 80 d8 88 bb 6b 35 a7 3e 78 ca 45 3d
       0.24015728 -0.0041761994 0.32657942 0.048288792
000130 76 d2 82 be 4a fa 2d 3e 71 b4 82 3e d6 59 4c be
       -0.25551194 0.16990009 0.2552829 -0.19956145
000140 25 b7 98 3e d0 70 be bc b8 2d 6f bd fa 9b 05 3e
       0.29827228 -0.023247153 -0.05839321 0.13047782
000150 34 21 cb 3d 77 a9 9c 3e 80 aa b7 3c 1d ab 5b be
       0.09918442 0.3059804 0.022420168 -0.21451993
000160 82 a4 28 3e e5 f3 bc 3e 50 4e b2 3c c0 71 d3 bb
       0.16469005 0.36904827 0.021765858 -0.006452769
000170 10 cd bb bc ab 17 b9 3e 9f 75 99 3e 76 3f 29 be
       -0.02292493 0.3615087 0.2997255 -0.16528115
000180 82 91 2d 3e 7a e5 20 3e 56 05 a9 be 3f c4 b5 be
       0.16950038 0.15712538 -0.33011883 -0.35501286
000190 bc 15 81 bd 8f 06 9d 3e 88 69 23 be 89 8b 91 3e
       -0.06302974 0.30669066 -0.15958226 0.2842677
0001a0 80 9b 2c bd 68 b7 1d 3d 3a 39 3e be 7e c6 82 be
       -0.042140484 0.038504988 -0.18576518 -0.25542063
0001b0 04 2b 94 be d6 63 65 3e 83 bd 08 be 16 1c 8f be
       -0.28939068 0.22401366 -0.13353543 -0.27951115
0001c0 0e ba 4d be b3 27 86 be 74 1d d7 bd 2a 65 c0 be
       -0.20090505 -0.26202163 -0.105036646 -0.37577182
0001d0 14 27 bb be 9e 33 77 be b6 03 9a be a6 e9 44 3e
       -0.36553252 -0.24140784 -0.30080956 0.19229755
0001e0 d6 c9 35 3e bb 24 88 3e 7c 9e 5e be d2 05 6a 3e
       0.17752776 0.26590523 -0.21740144 0.22853783
0001f0 fc 4a 83 bd b6 17 26 3e b0 7f ae bc 3a f1 ae be
       -0.064107865 0.16219983 -0.02130112 -0.34168416
000200 10 ce 25 3d 05 6f b3 3e f0 4f a8 be 10 75 71 3d
       0.04047972 0.3504564 -0.32873487 0.05894953
000210 18 1a fc bd c0 42 a2 be d8 e0 a7 be aa 09 05 3e
       -0.123096645 -0.3169155 -0.3278873 0.12991968
000220 29 2c 10 be fa d7 01 3e 20 89 eb 3d 28 a2 96 be
       -0.14079346 0.12680045 0.11500764 -0.2942059
000230 ad 46 0a be 98 42 96 3d 26 70 59 3e 10 9e 1d 3d
       -0.13503523 0.073369205 0.21234187 0.03848082
000240 f7 6c b4 be 66 e9 68 3e 01 23 a0 3e 40 dc 4f 3d
       -0.35239384 0.22745284 0.31276706 0.050747156
000250 52 86 69 3e 0d 5d 6e be f5 5c bf 3e 00 a4 7c 3d
       0.22805145 -0.23277684 0.37375608 0.06167984
000260 9d f9 bf 3e e8 9c 24 bd 98 33 95 3d 20 06 31 bc
       0.37495127 -0.0401887 0.07285231 -0.010804683
000270 a6 c0 03 3e f1 2e 91 3e 90 59 8b 3d 35 0e 15 be
       0.12866458 0.28356126 0.06804192 -0.14556201
000280 86 d3 23 3e 26 fb 5e 3e 20 e3 2c 3d 00 d6 74 ba
       0.15998659 0.21775493 0.04220879 -0.000933975
000290 0d 4a a3 be f8 bb 63 be ec dd 04 be c6 9c 29 3e
       -0.31892434 -0.22239673 -0.12975281 0.1656371
0002a0 d4 b1 03 be fa 95 4e 3e 80 9e fc 3c 80 93 c0 3c
       -0.12860805 0.20174399 0.030837297 0.023507833
0002b0 9d b9 a8 3e 0d 15 9a be a1 2f 9e 3e 90 06 d7 bd
       0.32954112 -0.30094185 0.30895713 -0.104992986
0002c0 87 26 25 be 56 c9 2f be ac e3 f2 bd 0a cc 86 be
       -0.16127978 -0.17166647 -0.11859831 -0.26327544
0002d0 40 a6 9e be af f5 0d be 6b 21 b2 3e a8 fa 0b bd
       -0.30986214 -0.13863252 0.3479112 -0.03417459
0002e0 81 6e ba 3e 0c 9a a7 bd 7d a1 ba 3e a0 ee 72 bc
       0.36412433 -0.08183679 0.3645133 -0.0148274
0002f0 67 08 8d 3e 79 6d 89 3e b0 f8 d7 bd 34 df 8b 3d
       0.27545473 0.26841334 -0.1054548 0.06829682
000300 28 a5 f8 3d 96 53 6f 3e de 30 49 3e 7a 38 7d 3e
       0.12140876 0.23371729 0.19647548 0.24728575
000310 40 db af bc a0 49 df bc e8 4f 78 be f7 e4 aa 3e
       -0.021466851 -0.027256787 -0.24249232 0.3337781
000320 22 f1 3a 3e 96 c6 c0 be c0 67 a5 bc 05 a5 80 3e
       0.18256047 -0.3765151 -0.020191073 0.251259
000330 42 7e b6 be 32 fe 5f 3e 3b 8e 81 3e 00 9f 22 3d
       -0.35643202 0.21874312 0.25303826 0.039702415
000340 d0 5c 34 3d f5 e6 ae be 3a 7d 8b be f7 c8 bf be
       0.044033825 -0.3416058 -0.27243978 -0.37458012
000350 06 83 43 be 48 f5 76 3d 6f 70 a8 3e c4 c1 a4 bd
       -0.1909295 0.060292512 0.3289828 -0.0804477
000360 08 a1 f9 bd 90 27 d5 bc 2c 6c 8c be 4d cc b1 be
       -0.121889174 -0.026019841 -0.2742628 -0.34726182
000370 fa 87 99 be 20 d9 ce bd ec c3 cd 3d 4a 2b 85 be
       -0.29986554 -0.10100007 0.10047135 -0.2600959
000380 90 6f f8 3d 81 fc a4 3e 80 bf a6 bc 1b 09 24 be
       0.12130654 0.32223895 -0.020354986 -0.16019098
000390 aa 6d 2b 3e 80 65 90 3c 90 ce 67 bd cf 52 89 3e
       0.16741052 0.017626524 -0.056593478 0.2682099
0003a0 92 5c 3c 3e aa c9 08 be 60 62 95 bd 69 50 0c be
       0.18394688 -0.13358179 -0.07294154 -0.13702549
0003b0 b6 f9 58 3e 70 fd fd bd 00 38 74 be 18 e0 74 3d
       0.21189007 -0.12401855 -0.23849487 0.059784025
0003c0 12 88 6a be f2 22 91 be c0 e4 ea 3c 5f 29 94 be
       -0.22903469 -0.28346974 0.02867353 -0.28937814
0003d0 e7 67 b2 3e f6 c8 6a be 90 8a df 3c d1 63 20 be
       0.34844896 -0.22928223 0.027287751 -0.15663077
0003e0 b6 e0 74 3e 4f ce ae be c0 24 8c 3c 65 76 95 be
       0.23913845 -0.34141776 0.017107368 -0.2919189
0003f0 fa d4 2e 3e b2 f0 b2 be 41 c6 8e 3e 75 6d b8 3e
       0.17073432 -0.3494926 0.2788563 0.3602101

conv4_3.bias f4 [10]
000000 cd cc cc 3d cd cc cc 3d cd cc cc 3d cd cc cc 3d
       0.1 0.1 0.1 0.1
000010 cd cc cc 3d cd cc cc 3d cd cc cc 3d cd cc cc 3d
       0.1 0.1 0.1 0.1
000020 cd cc cc 3d cd cc cc 3d
       0.1 0.1
