model_store/rnet_model_final.pt (torch_old, 242868 bytes, 13 tensors)

pre_layer.0.weight f4 [28, 3, 3, 3]
000000 2f cb 3f 3e b5 28 73 3e a0 b4 c1 3e 65 4b 52 bf
       0.18729852 0.23745997 0.37833118 -0.8214629
000010 d9 28 99 bf 41 f2 17 bf 22 df 1a 3f 27 d3 08 3f
       -1.1965591 -0.59354025 0.60496724 0.5344719
000020 10 ed 45 3e f9 02 28 3e 41 e4 c9 3e 61 20 13 3e
       0.19328713 0.16407384 0.39431956 0.1436782
000030 0d 62 3c bf 5e 65 8f bf 8c ff 4f bf 37 60 c8 3e
       -0.73587114 -1.120281 -0.8124931 0.39135906
000040 a4 bf a5 3e 23 f6 18 bd bb 40 c7 3d da 29 99 3e
       0.32372773 -0.03734411 0.09729143 0.29914743
000050 75 c1 48 3e f8 72 2c bf 0a 8f 88 bf 3d 6e 19 bf
       0.19605048 -0.6736293 -1.0668652 -0.59933835
000060 83 be 4c 3e fc 0c 8d 3d cc b2 4b 3d 07 e8 83 3e
       0.1999455 0.06887242 0.04973106 0.2576296
000070 9d 3b 1d bf 9d f3 29 3f d6 88 7e 3e 4e ae c3 be
       -0.6141909 0.6638735 0.24856886 -0.3821892
000080 61 a2 b8 3e 56 7d 3b 3d 9b 3c 25 bf f8 ab 3c bb
       0.36061385 0.045773827 -0.645456 -0.0028789025
000090 0c 8e 54 3e 44 8f 6b bf ff 59 da 3e 79 d8 5e bc
       0.20757312 -0.9201548 0.42646787 -0.013601416
0000a0 7a d2 36 bf 3c c4 19 3e b9 00 01 be 95 37 3f bf
       -0.7141491 0.15016264 -0.12597932 -0.74694186
0000b0 d8 37 a0 be 9f e9 3a 3d 7f 83 24 bf 37 dc 98 3d
       -0.31292605 0.045632955 -0.6426315 0.07463878
0000c0 44 4c 71 3e e6 92 c2 be af d6 e3 bd 38 3c be 3e
       0.2356425 -0.380027 -0.11124932 0.37155318
0000d0 c3 9f 1c be fb 8e e3 bc e8 fa 88 3e 78 cc a1 bd
       -0.1529532 -0.02777814 0.26753926 -0.079003274
0000e0 cc eb ed 3c a7 20 f8 3d fe 03 92 3e 00 d6 22 3f
       0.0290431 0.12115603 0.2851867 0.6360779
0000f0 de b5 52 bc fa e4 d3 bd e2 cc ea 3c b6 08 22 3e
       -0.012860743 -0.10346408 0.028662149 0.15823635
000100 d8 b7 35 bd e0 9b 16 bc b1 50 6e 3e 68 f3 48 3e
       -0.04436478 -0.009192437 0.23272969 0.19624102
000110 3e d8 2a 3f 16 85 b3 3d b7 e4 ea bd 3d ec 32 3e
       0.6673621 0.087656185 -0.11469405 0.1747293
000120 44 48 bb 3d 27 b2 af be 0f 5f 34 be a9 ed a6 3e
       0.09144643 -0.34315607 -0.17614387 0.32603195
000130 1c 2d 93 3e 2f 8c fd 3e 39 25 fc 3e 26 9d 57 3e
       0.28745353 0.49521014 0.4924715 0.21056041
000140 59 97 e0 3e 77 b9 2d bf 8f c0 c7 bd 8c a8 d1 be
       0.4386547 -0.6786112 -0.097535245 -0.40948904
000150 2d 05 d1 be 27 1a 16 3d 9f 9a 0f bf e2 da fc be
       -0.4082426 0.036646035 -0.5609531 -0.49385744
000160 92 7d 85 bd 57 d9 ac be 0d 91 cc 3e 79 dc 3e 3f
       -0.06518091 -0.33759567 0.39954415 0.74555165
000170 d5 89 d4 3e 71 8c 03 3f b9 51 70 3f d7 47 d4 3e
       0.41511407 0.5138617 0.938747 0.4146106
000180 f2 37 21 3f d7 b9 0f 3f e8 17 07 3f 9e ce ce be
       0.6297599 0.56142944 0.52770853 -0.4039201
000190 93 2d 88 3d 92 3c 72 be b9 ac e4 be b7 db 21 3e
       0.066493176 -0.23655918 -0.44663027 0.15806471
0001a0 22 14 cf be c8 be 90 be 13 3f 85 be 20 45 99 be
       -0.40445048 -0.28270555 -0.26024684 -0.2993555
0001b0 c0 d9 be bd 91 63 c1 be c7 61 07 bf ee a9 cd 3e
       -0.09318876 -0.37771276 -0.5288357 0.4016871
0001c0 4c 95 78 3e 2d 9e 03 bf bd 5c d7 3d 70 3e 08 3f
       0.24275702 -0.5141323 0.10515735 0.5322027
0001d0 ca 16 33 bc 1d d8 f4 3c 3c e2 88 be af 9d db be
       -0.010930726 0.029888207 -0.26735103 -0.4289374
0001e0 a1 3d 9b 3e 5e cd ba 3e 48 97 04 bf 47 67 b1 3e
       0.30320457 0.36484808 -0.51793337 0.34649107
0001f0 cf 3c eb 3e 13 ac 6f 3e b0 70 2e bc b0 46 09 bf
       0.4594483 0.23405485 -0.010646984 -0.53623486
000200 78 38 4d bf ba 16 06 3f 7a f5 83 3e f8 96 44 bf
       -0.8016429 0.5237843 0.2577322 -0.7679286
000210 6c 59 09 3f a8 60 cc 3e 2f 63 cb bd 83 9f 5b bd
       0.5365207 0.39917493 -0.09931027 -0.05361892
000220 19 a1 f3 3d cb 3a 9a 3d cb 00 16 3d ca 75 cb 3e
       0.11895961 0.07530745 0.03662185 0.39738303
000230 08 a8 a9 bd 15 e0 ef 3d fb cc 41 3e 40 cb 47 be
       -0.082840025 0.11712662 0.1892585 -0.19511127
000240 9a c2 b1 bd b6 5a 4b bc e0 a9 9b 3d 86 ee 7b 3e
       -0.086796954 -0.012411764 0.076007605 0.24602708
000250 cc c3 83 3e 66 77 e8 3d 68 42 9c 3b ed 60 8d 3e
       0.2573532 0.113508984 0.0047686584 0.2761301
000260 8f 63 04 be 72 1e 13 bf e7 ec 4e be 8c 8b 9c be
       -0.12928604 -0.5746833 -0.20207559 -0.30575216
000270 6b 6a aa be 7a 2f f4 be fa 10 b1 be 6f 58 3b bf
       -0.33284315 -0.47692472 -0.34583265 -0.73181814
000280 28 f3 03 bf 4d 79 e0 be 0d f4 59 3e 62 3a 5f be
       -0.515429 -0.43842545 0.21284504 -0.21799615
000290 44 50 b0 3e 69 76 9a 3d ec af 99 bd 56 b1 b6 3e
       0.34436238 0.07542116 -0.075042576 0.35682172
0002a0 a0 58 05 be a6 02 54 be 5d fa 06 3e 98 98 82 be
       -0.13022089 -0.20704135 0.13181444 -0.25507045
0002b0 45 24 7c bf eb 4f e7 be e4 d2 0d bf ae 20 6d bf
       -0.9849284 -0.4517816 -0.5539992 -0.9262799
0002c0 a9 84 05 bf 26 dd fc be 6b 3d 52 bf 5e af 11 bf
       -0.5215555 -0.49387473 -0.82124966 -0.56908214
0002d0 d9 5d c3 3e d8 ca e2 bb 4a 93 c5 bd 77 20 d7 3e
       0.38157538 -0.0069211535 -0.09647234 0.42016956
0002e0 c0 a9 38 3e bd cd 38 3e 1a ec c8 3e 5f b2 9a 3c
       0.18033504 0.18047233 0.3924263 0.018883882
0002f0 92 2f ff 3d ea 54 54 bf df 4d 43 be 7d e7 86 be
       0.12460245 -0.8294207 -0.19072674 -0.26348487
000300 7a ef b1 3d 05 37 86 3e f6 98 73 be eb ff 99 3d
       0.08688255 0.26213852 -0.23788819 0.075195156
000310 b0 a2 34 bd 38 71 76 be c3 24 ed be aa 9b f1 3d
       -0.044100463 -0.24066627 -0.4631711 0.11797269
000320 2e 7e 07 3e 4a f0 b6 3d 94 0c fb 3d d8 1e fd 3d
       0.13231727 0.0893255 0.122582585 0.123593986
000330 a5 00 a6 bd 37 68 30 bd 59 9a 1d 3d 33 65 3f bf
       -0.08105592 -0.043068137 0.038477276 -0.7476379
000340 e9 4c 87 be 64 2a 75 be 69 19 f8 bd e7 ec c0 3d
       -0.26425865 -0.23941952 -0.121142216 0.094201855
000350 d5 01 09 be 09 9f 39 bd 90 2b 0c 3d f2 08 8a bc
       -0.13379605 -0.045317683 0.034221232 -0.016849969
000360 da 5f 08 bd bb 95 81 3e eb 89 28 be 98 69 9b be
       -0.033294536 0.25309548 -0.16458862 -0.30354
000370 26 b9 78 be 7c 35 0d be a6 1f 26 3e 45 57 1a 3f
       -0.24289379 -0.13789934 0.1622301 0.6028941
000380 6e 46 01 3e f9 e4 2a bf a9 27 be be 21 de 03 bf
       0.12624523 -0.66755635 -0.37139633 -0.51510817
000390 74 04 a2 be 9e 2b 15 be 1e 8e 17 be 91 f9 f4 3e
       -0.31644022 -0.1456742 -0.14800307 0.47846654
0003a0 d5 38 26 3f 16 7a fc 3e 37 d7 3e bf 1d e4 0b bf
       0.6493047 0.49311894 -0.7454714 -0.5464495
0003b0 9d e2 f0 be c3 a8 04 be f2 b9 42 be 52 21 a2 bb
       -0.47047892 -0.12955002 -0.19016245 -0.0049478197
0003c0 66 9c d2 3e d4 b1 36 3f 0d e9 ec 3e 79 0c 1d bf
       0.41134948 0.71365094 0.46271554 -0.61347157
0003d0 b6 4e d2 be 07 80 0e bf e8 13 3e 3f 76 f9 90 3f
       -0.41075677 -0.55664104 0.74249125 1.132613
0003e0 fe e2 3c 3f 30 05 ab be 83 ea 02 bf 46 f1 94 be
       0.7378386 -0.33402395 -0.51139086 -0.29090327
0003f0 37 54 7b be 4f 39 aa be 40 77 e2 be 0e 83 52 3f
       -0.24543844 -0.33246848 -0.44231606 0.82231224

pre_layer.0.bias f4 [28]
000000 ea dc 33 bf 16 3d 00 be 7d 25 da bc 15 bd 0d 3e
       -0.70258963 -0.12523302 -0.026629204 0.1384166
000010 66 30 43 bd 9f b1 6f 3d b4 a9 c6 be 27 39 9f 3d
       -0.04765358 0.058519002 -0.38801348 0.07774573
000020 80 ee 1a be 16 6b ed 3d 98 d0 17 be 75 df 22 3e
       -0.15130043 0.11592691 -0.14825666 0.15905555
000030 a0 9b bc bd 5e c3 d4 3e b3 ec 04 bb 02 70 3e be
       -0.092093706 0.41555303 -0.0020282685 -0.18597415
000040 1e df 16 3d 5b d0 06 bf 55 f7 0a be b5 e2 6f 3e
       0.036833875 -0.52661675 -0.13570912 0.23426326
000050 dd 85 1f bd 26 87 8a 3d 9b 11 87 be 3f 10 cd 3d
       -0.03894602 0.06764059 -0.2638062 0.10012864
000060 e0 91 81 3e 8f 52 02 bf d8 11 05 be 33 88 ad bc
       0.25306606 -0.50907224 -0.12995088 -0.021183109

pre_layer.3.weight f4 [48, 28, 3, 3]
000000 dc b0 a7 be 69 a9 49 bf 41 e6 06 3e df f9 0f bf
       -0.3275212 -0.78774124 0.13173772 -0.5624065
000010 9f 42 31 bf 18 5c 2c 3e 0a 35 20 3f 50 17 0f 3f
       -0.6924228 0.16832006 0.6258093 0.5589495
000020 5f da 23 bf c1 a5 c4 3e ac 60 4f 3e 62 b1 dd 3d
       -0.6400508 0.3840771 0.20251721 0.10824849
000030 f2 aa 9e 3d 20 aa c2 be d5 ec e6 be c4 aa e2 be
       0.07747449 -0.3802042 -0.45102564 -0.4427091
000040 26 39 03 be de 25 00 bf 5c 78 31 bc 6b 2b d7 3d
       -0.12814769 -0.5005778 -0.010831919 0.10506328
000050 5d 5f d2 3e 44 62 25 bf 64 45 b4 be 56 46 0a 3e
       0.4108838 -0.64603066 -0.3520919 0.13503394
000060 84 08 11 bf c3 d1 dd be dc 89 09 bc 56 33 1c bc
       -0.5665362 -0.43324098 -0.008394685 -0.009533724
000070 9d 82 8b 3d 04 95 ff 3e 49 42 7e bf 58 76 1c bf
       0.06812022 0.49918377 -0.99319893 -0.6111808
000080 d5 bc 01 3f 88 30 8f bf 7c 29 96 bf 64 2a b6 3e
       0.5067876 -1.1186686 -1.173141 0.35579216
000090 07 e5 8d 3e 72 b6 bb bd 6a 70 c6 bb 50 75 d1 be
       0.27713796 -0.09165658 -0.0060558813 -0.40909815
0000a0 cc 52 d9 be ba 71 fd bd 01 da ff bd e6 36 c8 bd
       -0.42445982 -0.12375207 -0.12492753 -0.09776096
0000b0 cb 5f 70 3f 4f ce 43 3f 82 c9 45 3f 42 3f c6 3f
       0.9389617 0.76486677 0.772606 1.5488055
0000c0 98 ee f8 3d 74 25 19 bb 7f 4c 8f 3f c5 67 4a 3d
       0.12154883 -0.002336827 1.119522 0.04941537
0000d0 39 b0 36 bf f0 20 ba 3e dd 21 5a be 64 e0 fe 3e
       -0.71362644 0.36353254 -0.2130198 0.4978057
0000e0 2f d0 05 bf e5 cc d6 3e 21 3b 0d 3f 55 8c 20 bf
       -0.5227079 0.41953197 0.5516835 -0.6271413
0000f0 96 4c 20 be 4e df e0 3d e2 b6 96 be c5 c5 68 3f
       -0.15654215 0.10980092 -0.29436404 0.9092677
000100 a9 b3 7f 3f ae 7e 85 3f 7f 8d 31 3e 51 18 e7 3e
       0.99883515 1.0429285 0.17339133 0.4513574
000110 b5 0f f7 3e e3 0f c1 3d 4d 83 5b 3e a4 8c e5 3e
       0.4825417 0.09426858 0.21436806 0.44833863
000120 ff 8e c4 3e 18 6b 25 be 93 a7 28 3e f1 96 a6 be
       0.38390347 -0.16154134 0.16470174 -0.32537034
000130 50 69 1e 3e 93 29 78 3f b0 fa cb 3e 17 34 48 be
       0.15469861 0.9693844 0.39839697 -0.1955112
000140 12 66 4a 3f 2f ea 78 bf 16 7b 80 bf 50 45 61 3e
       0.79061997 -0.97232336 -1.0037563 0.21999097
000150 35 a6 da 3b 8c 47 08 bf 11 ce 1e 3e 86 e3 e6 3e
       0.0066726455 -0.5323417 0.15508296 0.45095462
000160 cb f3 72 bc b7 27 65 be 21 ca 4f 3e c2 62 87 be
       -0.014828633 -0.22378431 0.2029195 -0.26442534
000170 da 2f fd 3e 57 dd 42 3e 8f 1c f2 39 df d1 d6 3e
       0.4945057 0.19029747 0.00046179115 0.41956994
000180 e1 cb d2 3d 3b 84 81 3e 47 ef 06 3f 61 59 3e bf
       0.10292793 0.25296196 0.5270886 -0.7435513
000190 84 4e 33 3e 4d 24 e3 bc 87 ba 82 bd de 50 37 3f
       0.1751042 -0.02772727 -0.063832335 0.7160777
0001a0 fa 05 6d 3e ad d4 cf be 4b 68 b9 bd 7e 8a 2e bf
       0.23146811 -0.40591946 -0.090530954 -0.6818007
0001b0 44 bc 37 3e ae 2e 16 3f e5 16 5b 3f 91 a0 1e bd
       0.17942911 0.5866498 0.8558181 -0.038727347
0001c0 24 19 58 3e c7 cd f3 3e d9 47 9f be 45 2d 59 be
       0.2110334 0.47617933 -0.31109503 -0.21208675
0001d0 f5 0c 5a be 71 2e 2a bf 01 69 51 be 55 75 2c 3f
       -0.21294005 -0.66477114 -0.20450212 0.67366534
0001e0 52 0a 77 3e 98 62 2b bd 43 13 d6 3e 63 e0 6b be
       0.2412503 -0.041842073 0.4181157 -0.23034815
0001f0 0a 11 14 3d 59 30 0a be da a1 c5 3e fb 6e 5a 3f
       0.036149062 -0.13495006 0.38600045 0.8532559
000200 74 31 17 3f 8a 51 03 3e 40 8a 47 3e b1 fb ae bd
       0.59059834 0.12824073 0.19486332 -0.085441
000210 6a ad 90 3e 8f 2c dd 3d d4 c0 8a be 54 9b fe 3e
       0.28257304 0.107995145 -0.2710024 0.4972788
000220 66 a4 fd 3d 58 c6 69 3f 75 17 4f 3e c3 11 c0 3d
       0.12384872 0.91318274 0.20223792 0.09378388
000230 3b a3 1c 3f 14 92 c5 3d d3 b4 85 3e 0c 9e 0a 3f
       0.6118657 0.09647003 0.2611452 0.5414741
000240 7a a4 83 3e 8e 77 aa 3d 29 3a d4 3e 9b 04 b2 3e
       0.25711423 0.083235845 0.41450623 0.3476914
000250 a9 0d ae 3d 54 a4 8e 3e 72 91 c1 3e d7 60 84 be
       0.08498699 0.27859747 0.37806278 -0.25855133
000260 42 4b 69 bc 17 86 95 3f 6a 76 c7 be a8 60 97 3d
       -0.014239134 1.1681546 -0.3895753 0.073914826
000270 8f d0 f2 3e 8b 96 3a 3e bc 98 75 be ef 31 2d 3e
       0.47424743 0.1822149 -0.23984045 0.1691358
000280 91 7f a6 be ae a0 07 3f 5a 58 9a be cc 4b 94 bd
       -0.325192 0.5297955 -0.30145532 -0.072410196
000290 8d dc 9b be 03 7c b1 be e4 0a 04 be ca a4 0f bf
       -0.30441704 -0.34664926 -0.1289478 -0.56110823
0002a0 f6 7f a1 bc 14 df 6a bf 90 ea 74 bf 5b f8 29 be
       -0.019714337 -0.9174664 -0.95670414 -0.16598646
0002b0 90 ad a7 3e 9a 5d 8d 3f 82 b7 33 be ae 2e 0c 3f
       0.32749605 1.104419 -0.17550471 0.5475873
0002c0 42 33 5f 3f b6 45 07 bf 36 35 bb 3d 36 a1 41 3d
       0.8718759 -0.52840745 0.091410086 0.047272883
0002d0 c2 23 b4 bd 71 8e d4 3d 28 63 c6 3d 8e 67 5a bd
       -0.08795883 0.10378731 0.09686881 -0.053321414
0002e0 ff 03 c7 3d 84 3e 6b bd 9f 01 8e be 7f 6e 42 be
       0.09717559 -0.057432666 -0.27735612 -0.18987463
0002f0 0a b2 ad be 4c 9a aa 3f 9f 58 f8 bd 9c 0f ae be
       -0.33924896 1.3328338 -0.12126278 -0.33996284
000300 e6 2c ae 3e 3c 44 0a bf 19 2f 37 bf 71 28 ca be
       0.3401863 -0.5401037 -0.7155624 -0.3948398
000310 7d 63 6a be f5 0f 3a be 43 98 b4 bd 4b d1 22 be
       -0.22889514 -0.1817015 -0.08818104 -0.15900151
000320 48 f8 58 3e d7 d3 98 bd 73 92 fe be b0 34 31 3d
       0.21188462 -0.0746228 -0.49721107 0.043263137
000330 ef b8 51 bf 00 75 66 3e 4c 26 56 3f b0 0f c1 be
       -0.8192281 0.2250557 0.83652186 -0.3770728
000340 b2 48 12 bf 59 d6 76 be 98 ca 30 3e 17 af 7e bf
       -0.57142174 -0.24105205 0.17264783 -0.99485916
000350 b8 8a 4c bf 87 89 0b 3e 39 4b 91 3e 76 16 c2 3f
       -0.7989917 0.13626681 0.28377703 1.5163105
000360 a0 f7 0c 3e 5f 21 39 bf c5 ae db 3e fd 9c d4 3c
       0.13766336 -0.72316545 0.42906776 0.025953764
000370 87 48 a5 3d 16 0f e3 3e db a0 24 bf 19 2a 2a bf
       0.08070474 0.44347447 -0.64307946 -0.66470486
000380 62 cf eb be f7 e9 37 bf d3 97 4f bf 7e f0 61 3e
       -0.46056658 -0.7184138 -0.8109104 0.22064397
000390 a0 77 85 be c9 3a d4 be 98 52 2b 3f c7 06 85 3f
       -0.2606783 -0.414511 0.66922903 1.0392693
0003a0 03 da a8 3e 32 78 97 bf ad 1c 21 3f 84 f8 a5 3e
       0.3297883 -1.1833556 0.6293438 0.32416165
0003b0 15 eb 9d 3f 5b 84 ec 3b 04 9d 54 be 1b 55 6f 3e
       1.2337366 0.0072179264 -0.20763022 0.23372309
0003c0 60 86 18 3d 03 53 38 3e 35 de 37 3e fa 89 d6 be
       0.037237525 0.18000416 0.17955859 -0.41902143
0003d0 85 13 19 bf 83 a5 9e be aa a8 d0 3e 55 97 ac 3e
       -0.5979541 -0.3098565 0.4075368 0.33709207
0003e0 26 51 e2 be 9c c4 6e bf bf c4 b3 bf 1e f6 8b bf
       -0.44202536 -0.9326875 -1.4044417 -1.0934484
0003f0 64 c8 43 bf 7d 4b ec be c3 07 0a bd 0b dd 3b be
       -0.76477647 -0.46151343 -0.03369881 -0.1834604

pre_layer.3.bias f4 [48]
000000 cf d2 30 be c2 38 78 be c0 2a 96 bf 99 33 7a 3d
       -0.17267917 -0.24240401 -1.1731796 0.061084364
000010 15 51 c6 bc e9 fe 69 be f2 6f 35 be e6 3a 4c bf
       -0.024208585 -0.22851147 -0.17718485 -0.7977737
000020 6e a3 ff be f2 dd 8f 3e 9d 58 67 3c b5 22 54 be
       -0.49929374 0.28099018 0.014120248 -0.20716365
000030 6a 01 b1 be 14 54 9c be 43 f8 85 be be e0 fc be
       -0.3457139 -0.30532897 -0.2616597 -0.49390215
000040 4f 4e 83 bd c0 cd fc be f9 3f b9 be ea c5 c1 3e
       -0.064114206 -0.49375725 -0.3618162 0.3784631
000050 80 62 33 bf 58 b3 e0 be 3c 53 49 bf 8f f6 87 3d
       -0.70072174 -0.43886828 -0.7864263 0.06638824
000060 33 5b 01 3e 1a 3c 34 3d df 81 4f 3e f7 26 eb 3c
       0.12632446 0.04400263 0.20264386 0.028705103
000070 93 41 76 bf 04 cc 8e be 69 6d 5c bc a9 85 4c be
       -0.9619381 -0.27890027 -0.01345382 -0.19972862
000080 21 cd bf 3d 56 8c b5 be 99 eb f5 3c ab 35 4d be
       0.09365297 -0.3545863 0.030019568 -0.20040004
000090 cb 40 a2 bf 4f 13 33 bf 9f a1 0e bf 51 81 96 be
       -1.2676023 -0.6995134 -0.55715364 -0.29395536
0000a0 70 1f cb bc d2 cd c1 be be 8e 27 bd cc 8a 53 be
       -0.024795264 -0.3785234 -0.040907614 -0.20658416
0000b0 e2 f3 f3 be 53 a0 51 3e 83 2b 63 3e c1 8c 7e bf
       -0.47647005 0.20471315 0.22184567 -0.99433523

pre_layer.6.weight f4 [64, 48, 2, 2]
000000 74 76 56 3f 14 f3 ab be b7 85 84 be 0e a2 72 3d
       0.83774495 -0.3358389 -0.25883266 0.05923658
000010 60 a8 80 3f 82 3a e2 3e eb 66 22 3f d8 78 d5 be
       1.0051384 0.44185263 0.6343829 -0.4169376
000020 c6 dc 9b be 63 2c c8 bd f7 99 c0 bd d9 61 ed 3c
       -0.30441874 -0.09774091 -0.094043665 0.028977321
000030 5f 0d 49 be 11 1a 85 3d bf 20 29 bf ab 9b 5f bf
       -0.19634007 0.064991124 -0.6606559 -0.87346905
000040 03 e6 28 c0 95 f8 d5 be 9a ab a1 be b5 a1 23 bf
       -2.6390388 -0.41791216 -0.31576234 -0.6391862
000050 dc 0c 8f be d9 96 0f be dd 86 63 3e 27 3e 9b 3d
       -0.27939498 -0.14022388 0.22219415 0.07580214
000060 2c 8b 4d 3f 44 9e 13 3d 39 17 02 bf a7 13 64 3e
       0.80290484 0.036039606 -0.50816685 0.22273122
000070 3b 4a 68 3f e6 c8 58 bf ea 8c e4 be 07 12 a9 3d
       0.90738267 -0.84681547 -0.4463876 0.082553916
000080 f8 f8 29 3e e5 ab 75 3e 99 b2 60 be c2 27 3b 3f
       0.1659888 0.23991354 -0.2194313 0.7310754
000090 9f 0b 00 bf e6 73 50 3e 6f 9a 9c bf fa 0a 28 be
       -0.5001773 0.20356712 -1.2234629 -0.16410437
0000a0 58 c6 17 3e d3 62 6b be 94 36 39 3f a7 9f 9c be
       0.14821756 -0.22986917 0.72348905 -0.30590555
0000b0 52 96 54 bf db 3a 4a 3f 1d 3c d8 3e 3f b2 14 be
       -0.8304187 0.78996056 0.42233363 -0.1452112
0000c0 fe cc cc be bc 0d 90 3d 54 cd 9e be 86 e7 ad bd
       -0.40000147 0.070338696 -0.31016028 -0.08491425
0000d0 fa 84 e4 bd 31 43 ac bf c1 7e a3 3e 5d cc b6 3e
       -0.11158176 -1.3458005 0.31932643 0.35702792
0000e0 37 1c 1c bf 64 82 21 bf e1 b1 05 3f c4 a5 85 bf
       -0.6098055 -0.63089585 0.52224547 -1.0441213
0000f0 5e 35 2e 3e 80 49 89 3e b0 a5 13 3f 00 c2 47 3e
       0.17012545 0.2681389 0.57674694 0.19507599
000100 e8 4c 1b bf 5b 57 51 3e ae 11 4c 3e 24 1e 04 3e
       -0.60664225 0.2044348 0.1992862 0.12902123
000110 6f 1c 51 3f cc 41 c0 3e 2a 52 2e 3f 29 45 43 be
       0.8168401 0.375502 0.6809412 -0.19069351
000120 fd b9 a8 3e 98 a0 2d be 73 1b 15 3e 73 d3 f9 bf
       0.32954398 -0.16955793 0.14561252 -1.9517654
000130 9e d1 34 bf 44 d4 db bf e5 b5 e9 be e6 d2 eb be
       -0.7063235 -1.7174153 -0.45646587 -0.4605934
000140 91 26 0c 3e 65 ff 09 be d5 35 c8 3e 7d 5e 01 3f
       0.13686587 -0.13476332 0.3910357 0.505348
000150 b7 a3 36 3f 18 b2 56 bd f5 34 9a bf a8 0c 10 be
       0.7134356 -0.052415937 -1.2047411 -0.14067328
000160 be 92 8a 3f c1 55 cd 3d 86 62 8a bf ec 4f b8 3d
       1.0826032 0.10026122 -1.0811317 0.08999619
000170 ff 5e 94 be 2a 2b 05 3f 28 2b a7 bf d7 b0 3b bf
       -0.28978726 0.5201899 -1.3060045 -0.7331671
000180 25 26 20 bc 85 42 49 3f 36 ee 61 3f 38 48 08 bf
       -0.009774719 0.78617126 0.88254106 -0.532352
000190 c6 26 2e bf 6d a8 83 3f 05 1c 48 3e 13 a0 28 be
       -0.68027914 1.0285774 0.19541939 -0.16467313
0001a0 ad ee 59 bf b3 3e 45 3f 2a f3 57 3f 07 21 c1 3f
       -0.85129815 0.77048796 0.84355414 1.5088204
0001b0 c0 03 1a 3e 09 3a 2d bf 74 49 03 3f 23 96 8f bc
       0.15040493 -0.6766668 0.51283956 -0.017527645
0001c0 6d 5c ed be 63 52 32 be e2 43 97 be d1 23 0f bf
       -0.46359578 -0.1741424 -0.29543978 -0.55914026
0001d0 21 2b 8c bf 48 ce 17 3f aa 60 c0 bd 89 85 3a be
       -1.0950662 0.59299135 -0.09393437 -0.18215002
0001e0 75 88 f0 bc 7e fc 03 be cf 46 d3 3e 11 0a 74 bd
       -0.029361943 -0.12889287 0.4126496 -0.059579913
0001f0 16 52 71 be 9e bc 6b 3f 96 30 dc be 85 51 b1 bf
       -0.2356647 0.9208468 -0.43005818 -1.3853003
000200 1a 90 3d 3f 47 48 c1 bd 2f 83 01 3e cd 2a 00 3f
       0.74048007 -0.09437614 0.12647699 0.5006531
000210 bd 0c e7 be 12 cc 13 3f 78 5b 94 3d 19 1a a2 be
       -0.45126906 0.5773326 0.07244009 -0.31660536
000220 bd 75 5a be f9 9c 9b 3f 4c d3 af be 3a b1 39 bf
       -0.21333976 1.2157279 -0.34340894 -0.7253605
000230 b5 f7 8e be 38 b9 02 3f 39 39 e2 3e 40 ed a1 3f
       -0.2792336 0.5106387 0.44184282 1.2650528
000240 e4 19 fd be 24 24 03 bd 30 ff 68 bf e3 e9 df 3d
       -0.49433815 -0.03201689 -0.91014385 0.10933282
000250 d4 79 00 c0 80 dc e1 bf 6b 05 bd 3e c9 f1 3f 3e
       -2.0074358 -1.7645416 0.36918196 0.18744577
000260 05 2b 9b bf c3 63 15 3e 41 8c 12 be ed c0 44 3f
       -1.2122504 0.14588837 -0.14311315 0.7685688
000270 f3 67 0c 40 a3 40 8a 3f 2f 21 16 bf 6e 5f aa 3e
       2.1938446 1.0800976 -0.58644384 0.33275932
000280 34 2c 55 3f aa fc 3c be 1a 69 62 3e 9c 4b 6f 3f
       0.83270574 -0.18455759 0.22110406 0.93474746
000290 d2 2d 22 3e f4 27 b1 bd 7a 0b 40 3f 44 4d f0 be
       0.15837792 -0.086501986 0.7501751 -0.4693395
0002a0 3a f0 ee be e8 1f ac bc 10 44 2d 3f 8e 72 64 3f
       -0.46667653 -0.021011308 0.6768198 0.89237297
0002b0 19 e3 31 3e be 0b 41 3e 08 8b 69 be 22 f7 73 bd
       0.17371787 0.18852136 -0.22806942 -0.059561856
0002c0 33 e1 ad bf ef d7 49 bd 77 d8 bf bd b9 e4 2b bf
       -1.358435 -0.049278196 -0.09367459 -0.6714588
0002d0 b5 19 45 be cd bc b6 3e 40 76 99 be cf 87 78 3b
       -0.19248088 0.3569092 -0.2997303 0.0037922745
0002e0 1a ac db be 62 15 e0 3e 6f 8f 41 bf b5 a6 a8 3e
       -0.4290474 0.43766314 -0.7560949 0.32939687
0002f0 0c 7b 99 be 9d f0 94 be bb 9d 54 3f 4c f7 47 3e
       -0.2997669 -0.29089823 0.8305318 0.1952793
000300 3c 01 3a bf 49 2b e6 3e ff c2 20 bf f4 07 af 3c
       -0.72658134 0.449549 -0.6279754 0.021366097
000310 c2 d6 fb 3e 09 5c 53 be 62 f0 80 bf 3f 17 c6 3d
       0.49187285 -0.20640577 -1.0073359 0.096724026
000320 e6 36 5a 3e f0 56 82 be cc 2c 4d be ae e6 0e 3e
       0.21310005 -0.25456953 -0.2003662 0.13955185
000330 9b 79 7c 3f 67 d5 b2 bd ea 02 6d 3f 0e ab f2 bd
       0.98623055 -0.087321095 0.9258257 -0.11849032
000340 3b 7e be bf c7 dc 22 be 13 33 0f bf f1 0c b9 bd
       -1.4882272 -0.15904532 -0.5593731 -0.090356715
000350 d4 08 7c be 2f 35 af 3f 07 ac af be 73 3a 8d be
       -0.24612743 1.3688105 -0.34310934 -0.27583656
000360 57 e4 e5 3e c9 2c 47 be 66 79 82 be 5d 8d 21 3f
       0.44900772 -0.19450678 -0.25483245 0.6310633
000370 96 64 45 be 02 63 38 3e 01 87 7f 3f e8 bf ae bc
       -0.19276652 0.18006518 0.99815375 -0.021331742
000380 ad 59 2f 3f c6 98 cf be b9 ec fa 3e 30 86 21 3f
       0.6849621 -0.40546244 0.4900873 0.6309538
000390 d3 f5 32 be b3 6d 78 3e 8c bf 9e be 7e 79 05 bf
       -0.17476587 0.24260597 -0.31005514 -0.5213851
0003a0 38 f1 40 bf 01 f3 bb be d8 71 22 bf d3 75 ee be
       -0.7536807 -0.36708835 -0.6345496 -0.46574268
0003b0 26 2a 3a 3e c2 49 8a 3e 76 80 65 be 75 42 1f bf
       0.18180141 0.27009398 -0.22412285 -0.6221078
0003c0 95 91 3e 3f 61 53 00 3f 28 6f 01 3d be 66 02 3f
       0.7444089 0.50127226 0.031600147 0.5093802
0003d0 5e ca 13 3e fb 02 2b bc 95 98 35 bf 6a 4c a8 3d
       0.14432666 -0.010437722 -0.70935947 0.082177
0003e0 0a 79 69 3c 06 5c 3e bf e3 28 d3 be 29 3f 6b 3f
       0.014250049 -0.74359167 -0.41242132 0.9189325
0003f0 f1 08 d8 3e 5b a2 9d be 1d d0 8a 3d 9b 1c 01 bf
       0.42194322 -0.3078793 0.06777976 -0.50434273

pre_layer.6.bias f4 [64]
000000 bf 1e 0e 3f 76 97 65 3f ee 4d 3f be 0c ef 3e bf
       0.55515665 0.89684236 -0.18682072 -0.74583507
000010 aa 22 e0 3e 32 5d e2 be 16 0b b3 3d 2d 7b 28 3f
       0.43776447 -0.44211727 0.08742349 0.6581295
000020 4d 99 a0 be 49 9b 1f bd cf 14 40 be a5 02 1c bd
       -0.3136696 -0.03896645 -0.18757938 -0.03808846
000030 77 fc 4c 3e ce 3e 4b bf ed d9 38 3f 1e fe 85 3e
       0.20018183 -0.7939271 0.7220753 0.2617044
000040 49 06 97 be 13 eb ac 3d e2 45 07 3f ea a4 35 be
       -0.29496983 0.08443274 0.5284101 -0.17738691
000050 52 62 30 3e 8b c5 12 3e c3 4e cd bd 04 3b 34 bd
       0.17225006 0.14333169 -0.10024788 -0.044001594
000060 05 34 5f bd 5a 3a 04 bf 7f 08 87 bf e7 4d 62 bc
       -0.05449297 -0.5165154 -1.0549468 -0.013812519
000070 a2 eb 7e 3e 8f f8 71 3e 74 a2 af 3e 66 27 46 3f
       0.24894574 0.23629974 0.3430363 0.7740387
000080 7c 8f 3f 3e 5f 26 2a 3f 5e 5d 17 bf 72 94 0f bf
       0.18707079 0.664648 -0.5912684 -0.56085885
000090 5c af 35 3d 6f 3a c8 be 6c 19 1c bf e2 14 06 bd
       0.04435669 -0.3910708 -0.6097629 -0.03273476
0000a0 df 65 89 be da 97 7f 3f 87 bc 20 bf 2e 65 31 3f
       -0.26835534 0.9984108 -0.6278767 0.6929501
0000b0 70 74 28 3f 0a 08 ad 3e 41 96 06 3f 0c 16 66 3d
       0.6580267 0.33795196 0.5257302 0.05617337
0000c0 93 2b 5a bf 9f 7d 81 3f 43 b4 9e 3f a6 56 10 3e
       -0.8522274 1.0116462 1.2398762 0.14095554
0000d0 e9 f2 31 be 8d be a7 3f 7b 33 86 3f 1e 59 1d be
       -0.17377819 1.3105026 1.048446 -0.15366027
0000e0 dd 61 b1 be 3a c6 e1 3e 0f 16 e2 be 7e 01 e9 3e
       -0.34644976 0.44096547 -0.44157454 0.4550895
0000f0 de 3f 60 be 6f ca 4f 3f 7a f9 32 bf 98 93 87 3e
       -0.21899363 0.81168264 -0.6991192 0.26479793

conv4.weight f4 [128, 256]
000000 7b 7b 36 be 3a 70 e8 3d b8 8e a4 be c1 1d 8e bd
       -0.17820542 0.113495305 -0.32140136 -0.06939269
000010 03 67 1e bf 2d 90 20 bf 28 b1 6d be 32 4b 37 bf
       -0.61875933 -0.62719995 -0.23212111 -0.71599114
000020 4d 57 4c bd 88 4a 28 bf 58 25 0b bf 9c 26 f7 be
       -0.049887944 -0.65738726 -0.5435386 -0.48271644
000030 8b 62 31 3d ba b4 c7 3c 37 d1 ff bd 71 7b cc 3e
       0.04330687 0.02437817 -0.124910764 0.39937928
000040 32 77 05 bf 43 0b 3f be 4b 9b bd be 68 10 1b be
       -0.52135 -0.1865664 -0.37032542 -0.15142977
000050 c8 d6 86 3e bc de b4 3d ec 5a a7 3d f6 38 cb 3d
       0.2633574 0.08831546 0.08171639 0.09922974
000060 c9 26 48 3e a7 74 d0 3d 73 09 b4 3e 4c 26 01 3e
       0.19546045 0.101785 0.3516346 0.12612265
000070 65 0a c3 be b7 1c 5d bf 2f 0d 0d 3e 82 90 17 be
       -0.38093868 -0.8637194 0.1377456 -0.14801219
000080 57 db 34 3d 6d 27 49 3e 30 2a bf 3e 69 16 f0 3e
       0.04415449 0.19643946 0.37336874 0.46892098
000090 56 3a 91 be 83 90 65 bf 54 09 10 be cf 4f d8 be
       -0.2836482 -0.8967363 -0.14066058 -0.4224839
0000a0 b2 12 91 3e 4e 77 93 3e 13 c0 51 3e 47 83 82 3e
       0.28334576 0.2880196 0.20483427 0.25490782
0000b0 ed eb ee be 8f a9 91 3d 31 9f da be b5 1f 49 3e
       -0.46664372 0.07112419 -0.42699578 0.19641002
0000c0 6b 5c f7 3e c6 20 ca 3e cb 05 a5 3e 24 d7 21 3e
       0.48312697 0.3947813 0.32230982 0.15804726
0000d0 9c 95 43 be e8 72 05 3e dc de 4a 3e 6e 87 d4 be
       -0.1910004 0.13032115 0.19811577 -0.41509575
0000e0 1b 9a c3 3e ae c4 83 be 40 4d 31 3f 86 1b 6d 3e
       0.3820351 -0.25735992 0.692585 0.2315503
0000f0 b9 fa 40 be 72 7d 71 3e 3f 48 03 bf 4b a9 0a bd
       -0.18845643 0.2358301 -0.51282114 -0.033852857
000100 7a 2d 97 bc 76 bb 67 be 91 fb 0e be 9e 1f 95 be
       -0.018454302 -0.22630104 -0.13963152 -0.29125684
000110 88 ec 14 bf 94 3c 70 bf 3c eb 91 be f1 0f 9e bf
       -0.5817342 -0.93842435 -0.28499782 -1.2348615
000120 79 9c 20 be b1 e0 27 be 2b 6e b8 be 90 e8 7f be
       -0.1568469 -0.16394307 -0.3602155 -0.2499106
000130 25 9a 21 be 27 7f 80 be 76 65 0b bf ce ce 7b be
       -0.15781458 -0.2509701 -0.5445169 -0.24590608
000140 a6 a9 13 bf ce f0 87 be f5 53 17 bf ad 9a 4f be
       -0.5768074 -0.26550907 -0.59112483 -0.20273848
000150 4e b6 b8 be a0 25 02 bf b6 c2 de be 0b 57 e7 be
       -0.36076587 -0.5083866 -0.43507928 -0.45183596
000160 ee a5 84 be 13 cb 94 be d5 58 0f bf d9 a3 11 bf
       -0.25907844 -0.29061183 -0.5599492 -0.56890637
000170 1b 90 94 be e2 d4 d4 bd 2e 95 8c bd 8b d4 ab be
       -0.29016194 -0.10392167 -0.06864391 -0.33560595
000180 34 a1 d8 3e c7 0f 3e 3e 4e 05 3f 3e 2b 1f 90 be
       0.42310488 0.18560706 0.18654367 -0.2814878
000190 1f e1 19 3e dd 88 5a 3e 27 4c ba 3e 5c 40 b0 bc
       0.15027283 0.21341272 0.36386225 -0.021515064
0001a0 3d fd f6 bb 9c f9 64 be 04 45 c6 be d5 2f e0 be
       -0.0075375126 -0.22360843 -0.3872453 -0.43786493
0001b0 64 41 c4 3e c1 2a 02 bf b8 9b 06 3e dc b8 bf 3d
       0.3833114 -0.5084649 0.1314534 0.09361431
0001c0 1e 68 b9 bd 6f 56 20 be d6 10 bf be 55 bd c7 be
       -0.09053062 -0.15657972 -0.37317532 -0.39011636
0001d0 4a 50 a8 bc ec ce 78 be 93 43 de 3c 5a c7 78 3e
       -0.020546097 -0.24297684 0.027131831 0.24294797
0001e0 45 25 31 3e 79 dd 84 3d 2a b3 bb 3d 32 ad 4d be
       0.17299373 0.06487555 0.09165032 -0.200856
0001f0 b7 92 c3 3a 1d a6 c5 be 29 57 e0 3e 3c c0 88 3e
       0.0014921044 -0.38603297 0.43816498 0.26709163
000200 52 09 90 be 12 da aa be 07 e3 0e bf a9 a8 10 bf
       -0.2813211 -0.333695 -0.55815166 -0.56507355
000210 cb f2 28 3d 6c 0e 8a be 9e 59 a8 3c ab 80 c5 be
       0.04124717 -0.26964128 0.020550545 -0.38574728
000220 6f 0e e5 be 09 4a 60 be fd c5 c3 be 46 0c b9 bd
       -0.44737574 -0.21903242 -0.3823699 -0.09035544
000230 05 a1 88 3e c0 f6 4b 3d ad 2a 66 3e 7a 25 a3 3e
       0.26685348 0.049795866 0.22477217 0.3186453
000240 5e 8a 8d be cc a8 8c 3f af 8e c4 be 5a 1a ae 3e
       -0.27644628 1.0989013 -0.3839011 0.3400448
000250 50 bf b2 bd 40 07 89 be 1c 6b be 3d f7 4a 94 bd
       -0.08727896 -0.26763344 0.09297773 -0.07240861
000260 6e 86 40 bd 9f 82 47 3e 2d f0 fc bd c1 77 1b be
       -0.047003202 0.19483422 -0.123504974 -0.15182401
000270 24 bb aa be fc 4d 45 be e0 50 16 bf 1c c0 a6 be
       -0.33345902 -0.1926803 -0.58717155 -0.32568443
000280 5d ac 81 be 4e ba 81 3c 84 63 40 3e 87 e5 db 3e
       -0.25326815 0.015835907 0.18787962 0.42948553
000290 ef 4d 6f ba 61 4d 08 be 7f 5a 16 be ff 64 33 bf
       -0.00091287395 -0.13310768 -0.14682959 -0.7007598
0002a0 06 ca 14 bf 9f b2 2d bf 3f 90 01 bf b2 9c 68 be
       -0.58120763 -0.6785068 -0.5061073 -0.22716025
0002b0 e4 de de bd c2 2b 07 be 57 44 cb bc ac 88 1e bf
       -0.10882357 -0.13200286 -0.02481286 -0.61927295
0002c0 90 f7 4a be 29 c1 97 be 67 af 30 3e eb be c3 3d
       -0.19821 -0.29639557 0.1725441 0.09557899
0002d0 5d 6c 89 be ca d1 b3 be 0b 74 a3 bd 16 1e 76 be
       -0.26840487 -0.35120994 -0.07981118 -0.24034914
0002e0 a8 5c f1 3d 45 5c cb bd b6 32 0e be 73 7e 2d be
       0.11785251 -0.099297084 -0.13886532 -0.16942768
0002f0 7a 6f c6 be d1 5b 0b be 49 a1 00 bf 65 06 37 be
       -0.38756925 -0.13609244 -0.502461 -0.17873533
000300 de d6 6b bd e8 e8 58 be c3 3f 80 3c 1e 11 ba bd
       -0.05757796 -0.21182597 0.015655404 -0.09085296
000310 c7 f5 e9 3e 9b 48 21 be dd 17 0b 3d c1 1b ab be
       0.45695326 -0.15750353 0.033958305 -0.33419612
000320 a6 ae 23 3f 71 31 55 bd 12 44 75 3e 73 66 0d 3f
       0.6393837 -0.052049104 0.23951748 0.5523445
000330 46 72 3a 3e 5f e2 a0 3e 2c 31 3e be bc 92 26 be
       0.18207654 0.31422707 -0.18573445 -0.16266912
000340 7d d0 3a 3e 77 22 9b 3e 84 96 ff 3e ae f6 c3 3d
       0.18243594 0.30299732 0.49919522 0.09568535
000350 1f 5d 37 3c 8f 17 60 3e bb 49 fc 3d 65 6c ec 3e
       0.011191635 0.21883987 0.123187505 0.46176448
000360 62 6a ec be cf 80 63 3e 1a 60 bd be 41 84 df bd
       -0.46174914 0.22217105 -0.36987382 -0.10913897
000370 35 b5 32 bf 14 d0 5b bf 3e f5 bb bd 2f e5 cf bd
       -0.6980775 -0.8586438 -0.091776356 -0.10151135
000380 ba 08 53 be ea d4 4b bc 14 31 38 be 43 53 c2 bd
       -0.20608798 -0.012440899 -0.17987472 -0.09488537
000390 5f 90 93 be ae a4 29 be 47 89 4d be 5f 2a 5d be
       -0.28821084 -0.16566727 -0.20071898 -0.21598195
0003a0 6f 2b b7 be 21 1f 36 be 4e fd 3e be 9e 12 af be
       -0.35775325 -0.17785312 -0.18651316 -0.3419389
0003b0 bc b4 6e bc 03 f8 94 3d 80 4f 5f bd 74 c0 2d be
       -0.014569458 0.07273867 -0.054519176 -0.16967946
0003c0 54 05 d0 be 98 bd 49 be 96 c1 bc be a0 a0 11 bd
       -0.40629065 -0.1970123 -0.36866444 -0.035553575
0003d0 ca 8c 90 3c b4 55 4a 3e 45 55 ba be d8 5a be be
       0.017645258 0.19759256 -0.3639318 -0.37178683
0003e0 6d f4 36 bf 7a 96 b6 be 67 49 4f 3e 36 c6 f9 be
       -0.71466714 -0.3566168 0.20242845 -0.48784035
0003f0 51 d8 96 3d 35 8c 40 bf 71 5c 2a be b6 08 62 bf
       0.07365478 -0.7521394 -0.16636826 -0.8829454

conv4.bias f4 [128]
000000 25 5a 80 3e 58 75 f1 be 89 37 87 bd e2 f6 9f 3e
       0.25068775 -0.4715984 -0.06602389 0.31243044
000010 c6 37 ed bd 17 e6 0b 3f ca 03 ed be cf 56 35 bf
       -0.115829036 0.54647964 -0.46291953 -0.70835584
000020 f9 44 80 be 29 c4 68 bc 54 72 02 bf 7d 06 07 bf
       -0.25052622 -0.0142069245 -0.509557 -0.52744275
000030 98 ef 3b 3c 60 f3 1e bf 32 f0 e5 3f 08 b5 65 bf
       0.011470698 -0.6209011 1.7963927 -0.89729357
000040 e2 12 82 be 09 6a bd bd 24 1c b6 be c9 85 e9 be
       -0.2540503 -0.0924874 -0.35568345 -0.45609882
000050 c5 ae 5d bf fd 80 36 be 33 c0 04 bf a4 6c 71 be
       -0.865948 -0.17822643 -0.5185577 -0.235766
000060 8c 5e 43 3d 19 85 48 be 55 22 7c bf 1d a2 03 be
       0.04769759 -0.19582023 -0.98489887 -0.1285481
000070 2e 83 11 bf 05 80 2d bf ac 2a 60 bd e7 f9 7f bd
       -0.5684079 -0.6777347 -0.054728195 -0.062494185
000080 01 2a 8f 3e a6 d4 85 bc b4 54 2b bf 14 ce c9 bc
       0.27961734 -0.01633675 -0.6692612 -0.024634399
000090 49 22 e6 be 0e 18 07 be 34 c4 da be c6 0f 5b bd
       -0.44948032 -0.1319277 -0.42727816 -0.05348184
0000a0 c1 f8 06 be 2c 62 14 bf c8 f4 3d be 1d 91 b8 be
       -0.1318083 -0.579623 -0.18550408 -0.36048213
0000b0 86 0f 1f bf ff a7 07 be 6b 76 98 3e 09 e7 77 3f
       -0.6213306 -0.13247679 0.29777846 0.96836907
0000c0 8c f6 f7 be b0 f4 9a 3d f8 76 8f ba cb 07 c1 be
       -0.48430288 0.07566202 -0.001094549 -0.37701258
0000d0 c7 b1 ab be 5d c8 64 be 7d 55 25 3d 78 b1 9d be
       -0.3353407 -0.22342058 0.04036473 -0.3079946
0000e0 0d 32 8a be 14 da 3a be 79 f2 9c be ba 25 aa be
       -0.2699131 -0.18247253 -0.30653742 -0.33231908
0000f0 97 dc a3 3e 23 86 d8 bd df e7 9b be dc 21 ed be
       0.32004234 -0.105724595 -0.3045034 -0.46314895
000100 65 20 61 3e 8f 67 f8 be ff c2 b3 be 1d 3b a5 be
       0.21985014 -0.4851651 -0.35109708 -0.32271662
000110 50 81 08 bd 20 d7 18 3e bb 2f 81 be d4 7a 64 bf
       -0.033326447 0.14925814 -0.25231728 -0.8924992
000120 8c 92 c2 be 0c 75 ad be 2b 46 f7 be 72 e5 8e 3f
       -0.3800243 -0.33878362 -0.4829572 1.1163771
000130 19 e4 5a bf ec 0e bf 3d 60 d2 61 be 94 f2 c6 3d
       -0.855043 0.09329018 -0.22052908 0.09714237
000140 d7 c8 34 3f 9f 17 d6 3c ce 14 0b bf 83 7b 47 be
       0.7061896 0.02613431 -0.5432862 -0.1948071
000150 52 83 c7 3e f0 d1 ea be 0f 2f 33 bd 34 39 ae be
       0.38967377 -0.45863295 -0.04374605 -0.34028018
000160 1f aa e4 be ed 70 14 bf 88 2b 8b 3e 75 72 d8 be
       -0.44661042 -0.5798481 0.2718165 -0.42274824
000170 ae 03 bd bd 41 c4 9e bd 62 05 32 bc dc 03 69 bf
       -0.092292175 -0.07752276 -0.010865541 -0.91021514
000180 4c 79 da be 3d 83 24 3f 2c 2f 90 bd 79 0a c3 bd
       -0.42670667 0.64262754 -0.07040247 -0.09523482
000190 ef e3 a6 bc 96 f9 f2 3d 2e 83 db 3d 17 67 9c 3e
       -0.02037236 0.11864011 0.1071838 0.305474
0001a0 12 c9 5e bf 3a 57 fd be 83 99 16 bf d4 df 23 bf
       -0.8702556 -0.4948061 -0.5882799 -0.6401341
0001b0 dc 44 3d 3e 15 15 ef be a4 04 14 be 28 40 9a be
       0.18483299 -0.46695772 -0.14454895 -0.30127072
0001c0 af 04 c5 be a9 ee 30 bf 00 bc 8d 3f 5c eb 2e 3f
       -0.38480136 -0.69114166 1.1072998 0.6832788
0001d0 7b b8 09 bf d6 1b 6e 3d 2b bd e0 be d8 b6 50 be
       -0.5379712 0.058132015 -0.43894324 -0.2038225
0001e0 41 b6 4b bf c1 11 76 bf b7 8a 5b bf 36 5f 86 3d
       -0.7957497 -0.9612084 -0.8575854 0.06561129
0001f0 41 d9 d9 be 24 86 c6 3d 19 d6 ed 3e ad e8 98 bd
       -0.42548564 0.09693554 0.46452406 -0.074662544

conv5_1.weight f4 [1, 128]
000000 ff be c5 3d f0 03 8d be 11 8a 19 3d 49 43 15 be
       0.0965557 -0.27542067 0.037485186 -0.14576449
000010 9e 81 0a 3f 02 d8 9e be 84 b9 c5 bd 60 d7 b9 be
       0.5410403 -0.31024176 -0.09654525 -0.3629713
000020 8e e2 3e 3f aa 35 4d 3f 19 51 9e bf 95 1f 3c 3f
       0.74564445 0.8016001 -1.2368499 0.7348569
000030 72 b0 ea 3d 7c 50 66 be 7f c3 8f 3e 6c b9 12 be
       0.114594355 -0.2249164 0.2807884 -0.14328545
000040 e3 bb f0 be 93 61 a2 3e 91 97 ff bd 5b ab 1e be
       -0.47018346 0.31715068 -0.12480081 -0.15495054
000050 0f 18 06 be 1a 86 5d be 44 c0 41 be ad 81 ee bd
       -0.13095115 -0.21633187 -0.18921 -0.116458274
000060 cb 19 1a be 2e bd 16 3f 90 ef f3 3e 55 3c b3 3d
       -0.15048902 0.58882415 0.4764371 0.08751742
000070 52 d2 e0 bf bf e3 3a bf 49 9f 06 bc 9c fd 27 3c
       -1.7564185 -0.7300376 -0.0082166875 0.010253336
000080 f9 a5 85 be 0b a1 ef 3e 7c 2e 89 bb d7 e5 1f 3e
       -0.2610319 0.46802554 -0.0041864496 0.1561502
000090 06 5d 48 be ef f5 4f 3f d7 58 8a 3f 7a 39 9c 3b
       -0.19566736 0.8123464 1.0808362 0.004767594
0000a0 51 c1 87 3e 59 a1 d4 3e 59 26 25 3f 74 5b 2b bf
       0.26514676 0.41529348 0.6451164 -0.6693642
0000b0 e1 09 36 3e 58 0c 25 3b 0f 03 30 be d4 1f be 3e
       0.17777206 0.002518436 -0.17188667 0.37133658
0000c0 a0 16 b6 3d 88 12 a1 3e 7b 65 27 be a7 74 31 3f
       0.08891034 0.3145945 -0.16347305 0.6931862
0000d0 5e 62 d0 bd 61 68 14 3f 23 33 d5 be e5 60 52 3f
       -0.10175012 0.5797177 -0.41640577 0.821791
0000e0 ff 54 be bc 23 65 d9 bf 2b e6 8d bf a8 86 5c be
       -0.023233889 -1.698399 -1.1085867 -0.21535742
0000f0 9b b0 3d 3e 59 68 61 3e 0e ab a5 bf 02 d3 15 3e
       0.18524401 0.22012462 -1.2942827 0.14631274
000100 ff 7d 28 3f 18 af 73 bb c0 81 0d c0 59 86 65 3d
       0.65817255 -0.0037183221 -2.2110443 0.056036327
000110 35 2b fa 3d 05 de b8 be 80 87 12 be 36 41 11 c0
       0.12215272 -0.36106887 -0.14309502 -2.2696052
000120 12 b2 f5 be 66 7d cd 3e 58 3b 87 bc 54 80 47 be
       -0.4798742 0.40134734 -0.01650779 -0.19482547
000130 26 91 33 3d 4c 38 00 bf ec ac 0e be b3 ed 90 bd
       0.043839596 -0.500859 -0.13933152 -0.070765875
000140 4a b2 cb 3e e1 1d 8a 3e ac 25 d7 3c 94 9d ce 3e
       0.3978446 0.2697592 0.02626308 0.40354598
000150 cf a0 d9 bd ea d7 2c 3e 0a 54 9b bd c8 4d 6b 3e
       -0.10626375 0.1687924 -0.075843886 0.2297889
000160 af b5 2b 3d f5 4a 90 3e de 4d 0d 3e 39 fa da bc
       0.041921314 0.28182188 0.13799235 -0.026730644
000170 02 88 b0 bd 22 e4 cd bc b2 70 6a 3b d5 c7 94 be
       -0.086196914 -0.025133196 0.0035772738 -0.2905871
000180 58 d3 7e 3e 71 50 1b 3f 2e e6 76 3f af 62 1d bd
       0.24885309 0.6066962 0.96444976 -0.03842419
000190 e4 ab 3e 3e d1 d6 67 3e 9c 1b a6 3e d4 de 76 bd
       0.18620259 0.2264054 0.3244294 -0.0602711
0001a0 83 cf ce bf 9e 8f 85 be 43 91 f0 be dd b4 81 3e
       -1.6157078 -0.26086134 -0.46985826 0.253333
0001b0 78 34 85 3e b2 dd cc bc 19 df 54 3f 02 6d ee 3d
       0.26016593 -0.025008056 0.8315292 0.11641885
0001c0 08 f5 74 be e2 5a 23 bf 9d c4 2b 3e 44 38 3e 3e
       -0.23921597 -0.6381055 0.16774221 0.18576151
0001d0 9a a9 8f be 5e cc 61 3f ba 00 0a be a0 8f d7 be
       -0.28059083 0.88202465 -0.1347684 -0.42101765
0001e0 f9 7d 9f bd a9 04 fa bd 46 8c 99 3e 18 7e f9 3e
       -0.07787699 -0.1220792 0.29989833 0.48729014
0001f0 2f 8b d9 3e bb f9 af bc 30 14 99 3e 1c c4 33 3d
       0.42489 -0.021481385 0.29898214 0.043888196

conv5_2.weight f4 [4, 128]
000000 35 20 74 bd 3b ff bc 39 cf 03 86 3b 24 eb 23 be
       -0.059601028 0.00036048316 0.0040898095 -0.16007668
000010 e2 2b 47 be a6 2e c8 39 1b 64 05 be d9 15 a2 3d
       -0.19450334 0.00038181728 -0.13026468 0.07914323
000020 03 52 3d 3e 78 de 18 be 3c ec 3a be 05 6f b2 bd
       0.18488316 -0.14928615 -0.18254179 -0.087125815
000030 e0 80 57 3e fb 0c df bc 18 8e 4f 3b cf ac 20 ba
       0.21045256 -0.02722787 0.0031670388 -0.0006129266
000040 37 18 84 bd 25 ad 25 be 3b 7c 66 be 28 de 70 be
       -0.06449931 -0.1617933 -0.22508328 -0.23522246
000050 2d 54 1c 3d 58 93 e2 bb 12 76 0d 3e f5 31 be 3a
       0.038166214 -0.0069145374 0.13814571 0.0014510738
000060 f6 da ac bc 15 4a 59 be 29 c2 3f 3e 86 b1 1c 3d
       -0.021100502 -0.21219666 0.1872641 0.038255237
000070 55 05 7e bd 0e 26 31 3c 93 90 22 bd 79 22 11 be
       -0.062016804 0.010812296 -0.039688658 -0.14173307
000080 0d 90 7d bc fc d0 da bd 1d f5 f4 bd 69 18 2b be
       -0.015476239 -0.10684392 -0.11960814 -0.1670853
000090 22 a6 07 bc d8 4e 17 bd cc 79 61 bd 37 77 82 3e
       -0.008279355 -0.036940426 -0.055047795 0.2548158
0000a0 0c 34 0b 3e 58 c4 85 3e b6 ca 02 be 34 3f 88 bd
       0.13594073 0.2612636 -0.1277264 -0.0665268
0000b0 d5 df 5b bd 70 98 33 3e 35 c1 05 bb cf f9 b4 bd
       -0.05368026 0.17538619 -0.002040935 -0.0883671
0000c0 1e a5 04 3e f3 ef b5 bd 3c e9 b8 3d 06 28 67 3e
       0.12953612 -0.08883657 0.09028861 0.22573861
0000d0 7b f0 3c bc d5 59 73 be 25 e3 80 3d 49 8b 5e 3e
       -0.011531944 -0.23764737 0.062933244 0.2173282
0000e0 8e 64 40 be d3 70 59 3e 6c 17 4e 3d 4f 1e 30 3e
       -0.18788359 0.21234445 0.050315306 0.17199062
0000f0 c7 62 15 be b3 73 64 3a 3d b4 e3 3d cf 54 95 bb
       -0.14588462 0.00087147503 0.11118362 -0.004557229
000100 cf 73 08 be 47 3a d9 3d a3 fe 39 be cc 76 e4 3d
       -0.13325427 0.10606819 -0.18163542 0.11155471
000110 d8 8b b9 3d af 91 e0 bd c7 9f 34 3e 2a a4 ff bc
       0.09059876 -0.10965287 0.17639075 -0.03120621
000120 e6 8a 1c be f8 d6 88 3e 90 26 0b 3e e5 70 ea bd
       -0.1528736 0.26726508 0.13588929 -0.11447314
000130 09 f3 d4 bd 65 cf 22 3e ff 38 15 be 32 76 0c 3e
       -0.10397918 0.15899427 -0.14572524 0.13716963
000140 8f 7f 48 3e dd ae f9 bc 50 57 30 3e 2f 42 3c bd
       0.1957991 -0.03047889 0.17220807 -0.045961555
000150 e7 40 66 ba 63 6d 27 bd a4 42 3d bd 6f 6e 32 3d
       -0.0008783475 -0.040875804 -0.04620613 0.04356235
000160 ce 3e 26 be dc e6 a1 be 1e d1 16 3a 50 da 15 bd
       -0.16234896 -0.31621444 0.0005753207 -0.036585152
000170 c6 f9 e6 3d 83 48 31 bc 98 7c 03 3e 9d e5 0f 3e
       0.11278109 -0.010820511 0.12840497 0.14052434
000180 61 85 c4 bd a0 4f a9 bd 98 47 e4 bd 48 28 89 3d
       -0.095957525 -0.082671404 -0.11146468 0.06697136
000190 02 1c 38 3e 3b 26 02 bd b4 b5 67 3b a1 20 78 3d
       0.17979434 -0.03177474 0.0035356106 0.060577992
0001a0 b0 45 de bc a9 01 8f bc 4a fd 90 3d bf 50 00 be
       -0.027132839 -0.017456846 0.07079561 -0.12530802
0001b0 4b ca 68 be 4c 25 b7 3d ad 36 0c be 6a f8 df bc
       -0.22733419 0.08942661 -0.13692732 -0.027340133
0001c0 8e ba 7b 3e 6e 2d 1b 3d 9e 7c 15 be 1f 00 8b bd
       0.24582884 0.037885122 -0.14598319 -0.067871325
0001d0 e4 e8 2f 3e fc 82 dd 3d a4 94 23 be 06 2f b6 b9
       0.17178684 0.10815999 -0.1597467 -0.0003474878
0001e0 5d 08 79 3e 48 27 1e 3d 85 d3 35 3e 10 5a e8 3c
       0.24319597 0.03861168 0.1775647 0.028363258
0001f0 e7 55 42 be ac 7c 27 3e cd 60 3f be c8 98 54 3e
       -0.18978082 0.16356152 -0.1868927 0.20761406
000200 c2 89 de 3d a3 46 28 3a b4 e0 2a 3e e2 55 ee bd
       0.10866119 0.0006419217 0.1668728 -0.116374746
000210 00 c4 36 3e 7f c4 eb 38 9d a0 7a bd f9 0b c5 bc
       0.17848206 0.000112422735 -0.06118833 -0.02405356
000220 c7 7b 09 be fd 75 5a 3e e1 4b 86 bc 4e d5 18 bd
       -0.13426124 0.21334071 -0.016393604 -0.0373128
000230 b6 99 6f be 2c 66 1f 3c 73 56 44 bd 33 87 d7 ba
       -0.2339848 0.0097289495 -0.047934007 -0.0016443491
000240 cc f3 20 be 13 c5 8d bd 3d f3 7c 3d 55 36 83 3e
       -0.15718001 -0.069223545 0.061755408 0.2562739
000250 0e 8d e1 3d 4b c7 c0 bb 73 58 99 bd da d5 12 b9
       0.11013232 -0.0058831326 -0.074875735 -0.00014003311
000260 c5 b0 f8 3b 21 37 2f 3e e7 08 06 3d 6d a1 be 3d
       0.007589432 0.17110874 0.032723334 0.09308133
000270 08 a8 a3 3d da 0a 51 bd 7c 8d 5c 3e 5e 92 a0 bd
       0.07991034 -0.05103574 0.21538347 -0.07840417
000280 ad 00 f8 bb 9e 99 12 3d 96 4c 45 bd ba 83 b5 3a
       -0.00756844 0.035791032 -0.04816874 0.0013848462
000290 a1 15 d7 ba 51 44 b3 bd 6a 8a 48 bd a2 1c 75 3d
       -0.0016409644 -0.08753265 -0.048960127 0.05984176
0002a0 c9 ff 8b 3b 2d 4b 07 bf a3 17 53 3e 3d 72 a8 3d
       0.0042724353 -0.52849084 0.20614485 0.08224914
0002b0 83 23 a0 3d 55 bc 85 be 0a ca f6 3a cd ce 2c 3d
       0.07819273 -0.26120248 0.0018828523 0.042189408
0002c0 f1 e9 09 be ed bf f8 bd b7 00 dc 3d bc 6e c8 bd
       -0.13468148 -0.12145982 0.10742324 -0.09786746
0002d0 0e 62 c5 bd b4 bd 56 bc a1 92 46 ba 26 92 47 be
       -0.09637843 -0.013106752 -0.000757495 -0.19489345
0002e0 ae 3f 11 3e f0 f5 04 be 78 ea e1 bd 2c ba 82 be
       0.14184448 -0.12984443 -0.110310495 -0.25532663
0002f0 3d c0 ab 3e a9 fc 24 3b 99 ff 57 3d 14 47 11 3f
       0.33545104 0.0025175011 0.05273399 0.5674908
000300 c6 d0 02 3e 76 fa 11 be 1b b8 09 3e b7 33 8c 3d
       0.12774953 -0.142557 0.13449137 0.06845801
000310 5e 80 c1 bc a2 71 d0 3d 63 46 18 be 8a b1 1d bc
       -0.02362078 0.10177924 -0.148706 -0.009624848
000320 84 4e c0 3d fe 83 ca be 15 6a 93 3b b0 f1 1f 3d
       0.09389976 -0.39553827 0.00449873 0.03904885
000330 33 ea e4 bb 30 1f 80 3c a3 e6 12 bc 21 df da 3b
       -0.0069859265 0.015639871 -0.008966121 0.006679431
000340 23 48 6a be f6 4d 9b 3d 4a 5b 4b 3d 75 56 0b 3e
       -0.2287908 0.07583229 0.049647607 0.136072
000350 d0 bf 2e ba 54 1c f8 bd 08 4e a3 ba b1 1d 1e be
       -0.00066661555 -0.12114778 -0.0012459168 -0.15441014
000360 5f 03 02 bc 48 73 09 3e 9d a0 41 3a 61 94 ba 3d
       -0.007935374 0.13422883 0.0007386299 0.09110332
000370 6b a6 98 3d 29 d8 f0 3d c1 c7 97 3d 02 14 d0 bc
       0.07453617 0.11759979 0.07411147 -0.025400165
000380 3d 38 5e be 81 3d 0e 3d 16 a9 96 3e 84 7a c3 bc
       -0.2170114 0.034726623 0.29425877 -0.023862131
000390 96 9b 2d 3d fd e3 a1 bc 6d 47 f6 3a 69 d4 9c 3c
       0.042384706 -0.019762034 0.0018789597 0.019144254
0003a0 73 7c 22 be a0 85 e2 3c 2f d9 07 3d 85 03 9b 3e
       -0.15867786 0.027651608 0.033166107 0.30276123
0003b0 1a 52 91 3d 09 1c e7 3d 96 59 ae 3d a7 99 ac 3d
       0.07095738 0.11284644 0.08513181 0.08427744
0003c0 8b 2a 99 be 08 88 68 3e 3b ff 6b 3d f1 7f 91 bd
       -0.2991527 0.22708142 0.057616454 -0.07104481
0003d0 b1 39 d4 bd 10 1a 20 3e 3f 3a 6b 3e 60 74 c3 bb
       -0.10362566 0.15634942 0.22971438 -0.0059648007
0003e0 84 dd 9d 3e 05 0d 6d be 95 01 80 be 4b 13 bb be
       0.30833066 -0.23149498 -0.25001207 -0.36538157
0003f0 f5 6b bb 3e 65 2f b6 bb 51 3b 1c 3e 15 6e 76 bb
       0.36605802 -0.005559849 0.15257002 -0.0037602235

conv5_2.bias f4 [4]
000000 3b 0d 22 3d 8b 6f c9 bd a4 0c cd 3b 6b 10 d6 3d
       0.0395634 -0.09835728 0.0062576104 0.1045235
